{"keras_version": "2.0.5", "class_name": "Model", "config": {"name": "model_1", "input_layers": [["input_1", 0, 0]], "output_layers": [["activation_58", 0, 0]], "layers": [{"name": "input_1", "class_name": "InputLayer", "inbound_nodes": [], "config": {"name": "input_1", "sparse": false, "dtype": "float32", "batch_input_shape": [null, 640, 480, 3]}}, {"name": "conv1_1_3x3_s2", "class_name": "Conv2D", "inbound_nodes": [[["input_1", 0, 0, {}]]], "config": {"kernel_size": [3, 3], "kernel_initializer": {"class_name": "VarianceScaling", "config": {"distribution": "uniform", "seed": null, "mode": "fan_avg", "scale": 1.0}}, "use_bias": false, "bias_constraint": null, "trainable": true, "strides": [2, 2], "bias_regularizer": null, "bias_initializer": {"class_name": "Zeros", "config": {}}, "padding": "same", "activity_regularizer": null, "name": "conv1_1_3x3_s2", "filters": 64, "activation": "linear", "kernel_regularizer": null, "dilation_rate": [1, 1], "data_format": "channels_last", "kernel_constraint": null}}, {"name": "conv1_1_3x3_s2_bn", "class_name": "BatchNormalization", "inbound_nodes": [[["conv1_1_3x3_s2", 0, 0, {}]]], "config": {"momentum": 0.95, "moving_variance_initializer": {"class_name": "Ones", "config": {}}, "beta_regularizer": null, "axis": -1, "gamma_constraint": null, "beta_initializer": {"class_name": "Zeros", "config": {}}, "scale": true, "gamma_initializer": {"class_name": "Ones", "config": {}}, "gamma_regularizer": null, "moving_mean_initializer": {"class_name": "Zeros", "config": {}}, "name": "conv1_1_3x3_s2_bn", "epsilon": 1e-05, "beta_constraint": null, "trainable": true, "center": true}}, {"name": "activation_1", "class_name": "Activation", "inbound_nodes": [[["conv1_1_3x3_s2_bn", 0, 0, {}]]], "config": {"name": "activation_1", "activation": "relu", "trainable": true}}, {"name": "conv1_2_3x3", "class_name": "Conv2D", "inbound_nodes": [[["activation_1", 0, 0, {}]]], "config": {"kernel_size": [3, 3], "kernel_initializer": {"class_name": "VarianceScaling", "config": {"distribution": "uniform", "seed": null, "mode": "fan_avg", "scale": 1.0}}, "use_bias": false, "bias_constraint": null, "trainable": true, "strides": [1, 1], "bias_regularizer": null, "bias_initializer": {"class_name": "Zeros", "config": {}}, "padding": "same", "activity_regularizer": null, "name": "conv1_2_3x3", "filters": 64, "activation": "linear", "kernel_regularizer": null, "dilation_rate": [1, 1], "data_format": "channels_last", "kernel_constraint": null}}, {"name": "conv1_2_3x3_bn", "class_name": "BatchNormalization", "inbound_nodes": [[["conv1_2_3x3", 0, 0, {}]]], "config": {"momentum": 0.95, "moving_variance_initializer": {"class_name": "Ones", "config": {}}, "beta_regularizer": null, "axis": -1, "gamma_constraint": null, "beta_initializer": {"class_name": "Zeros", "config": {}}, "scale": true, "gamma_initializer": {"class_name": "Ones", "config": {}}, "gamma_regularizer": null, "moving_mean_initializer": {"class_name": "Zeros", "config": {}}, "name": "conv1_2_3x3_bn", "epsilon": 1e-05, "beta_constraint": null, "trainable": true, "center": true}}, {"name": "activation_2", "class_name": "Activation", "inbound_nodes": [[["conv1_2_3x3_bn", 0, 0, {}]]], "config": {"name": "activation_2", "activation": "relu", "trainable": true}}, {"name": "conv1_3_3x3", "class_name": "Conv2D", "inbound_nodes": [[["activation_2", 0, 0, {}]]], "config": {"kernel_size": [3, 3], "kernel_initializer": {"class_name": "VarianceScaling", "config": {"distribution": "uniform", "seed": null, "mode": "fan_avg", "scale": 1.0}}, "use_bias": false, "bias_constraint": null, "trainable": true, "strides": [1, 1], "bias_regularizer": null, "bias_initializer": {"class_name": "Zeros", "config": {}}, "padding": "same", "activity_regularizer": null, "name": "conv1_3_3x3", "filters": 128, "activation": "linear", "kernel_regularizer": null, "dilation_rate": [1, 1], "data_format": "channels_last", "kernel_constraint": null}}, {"name": "conv1_3_3x3_bn", "class_name": "BatchNormalization", "inbound_nodes": [[["conv1_3_3x3", 0, 0, {}]]], "config": {"momentum": 0.95, "moving_variance_initializer": {"class_name": "Ones", "config": {}}, "beta_regularizer": null, "axis": -1, "gamma_constraint": null, "beta_initializer": {"class_name": "Zeros", "config": {}}, "scale": true, "gamma_initializer": {"class_name": "Ones", "config": {}}, "gamma_regularizer": null, "moving_mean_initializer": {"class_name": "Zeros", "config": {}}, "name": "conv1_3_3x3_bn", "epsilon": 1e-05, "beta_constraint": null, "trainable": true, "center": true}}, {"name": "activation_3", "class_name": "Activation", "inbound_nodes": [[["conv1_3_3x3_bn", 0, 0, {}]]], "config": {"name": "activation_3", "activation": "relu", "trainable": true}}, {"name": "max_pooling2d_1", "class_name": "MaxPooling2D", "inbound_nodes": [[["activation_3", 0, 0, {}]]], "config": {"name": "max_pooling2d_1", "strides": [2, 2], "padding": "same", "data_format": "channels_last", "trainable": true, "pool_size": [3, 3]}}, {"name": "activation_4", "class_name": "Activation", "inbound_nodes": [[["max_pooling2d_1", 0, 0, {}]]], "config": {"name": "activation_4", "activation": "relu", "trainable": true}}, {"name": "conv2_1_1x1_reduce", "class_name": "Conv2D", "inbound_nodes": [[["activation_4", 0, 0, {}]]], "config": {"kernel_size": [1, 1], "kernel_initializer": {"class_name": "VarianceScaling", "config": {"distribution": "uniform", "seed": null, "mode": "fan_avg", "scale": 1.0}}, "use_bias": false, "bias_constraint": null, "trainable": true, "strides": [1, 1], "bias_regularizer": null, "bias_initializer": {"class_name": "Zeros", "config": {}}, "padding": "valid", "activity_regularizer": null, "name": "conv2_1_1x1_reduce", "filters": 64, "activation": "linear", "kernel_regularizer": null, "dilation_rate": [1, 1], "data_format": "channels_last", "kernel_constraint": null}}, {"name": "conv2_1_1x1_reduce_bn", "class_name": "BatchNormalization", "inbound_nodes": [[["conv2_1_1x1_reduce", 0, 0, {}]]], "config": {"momentum": 0.95, "moving_variance_initializer": {"class_name": "Ones", "config": {}}, "beta_regularizer": null, "axis": -1, "gamma_constraint": null, "beta_initializer": {"class_name": "Zeros", "config": {}}, "scale": true, "gamma_initializer": {"class_name": "Ones", "config": {}}, "gamma_regularizer": null, "moving_mean_initializer": {"class_name": "Zeros", "config": {}}, "name": "conv2_1_1x1_reduce_bn", "epsilon": 1e-05, "beta_constraint": null, "trainable": true, "center": true}}, {"name": "activation_5", "class_name": "Activation", "inbound_nodes": [[["conv2_1_1x1_reduce_bn", 0, 0, {}]]], "config": {"name": "activation_5", "activation": "relu", "trainable": true}}, {"name": "zero_padding2d_1", "class_name": "ZeroPadding2D", "inbound_nodes": [[["activation_5", 0, 0, {}]]], "config": {"name": "zero_padding2d_1", "data_format": "channels_last", "trainable": true, "padding": [[1, 1], [1, 1]]}}, {"name": "conv2_1_3x3", "class_name": "Conv2D", "inbound_nodes": [[["zero_padding2d_1", 0, 0, {}]]], "config": {"kernel_size": [3, 3], "kernel_initializer": {"class_name": "VarianceScaling", "config": {"distribution": "uniform", "seed": null, "mode": "fan_avg", "scale": 1.0}}, "use_bias": false, "bias_constraint": null, "trainable": true, "strides": [1, 1], "bias_regularizer": null, "bias_initializer": {"class_name": "Zeros", "config": {}}, "padding": "valid", "activity_regularizer": null, "name": "conv2_1_3x3", "filters": 64, "activation": "linear", "kernel_regularizer": null, "dilation_rate": [1, 1], "data_format": "channels_last", "kernel_constraint": null}}, {"name": "conv2_1_3x3_bn", "class_name": "BatchNormalization", "inbound_nodes": [[["conv2_1_3x3", 0, 0, {}]]], "config": {"momentum": 0.95, "moving_variance_initializer": {"class_name": "Ones", "config": {}}, "beta_regularizer": null, "axis": -1, "gamma_constraint": null, "beta_initializer": {"class_name": "Zeros", "config": {}}, "scale": true, "gamma_initializer": {"class_name": "Ones", "config": {}}, "gamma_regularizer": null, "moving_mean_initializer": {"class_name": "Zeros", "config": {}}, "name": "conv2_1_3x3_bn", "epsilon": 1e-05, "beta_constraint": null, "trainable": true, "center": true}}, {"name": "activation_6", "class_name": "Activation", "inbound_nodes": [[["conv2_1_3x3_bn", 0, 0, {}]]], "config": {"name": "activation_6", "activation": "relu", "trainable": true}}, {"name": "conv2_1_1x1_increase", "class_name": "Conv2D", "inbound_nodes": [[["activation_6", 0, 0, {}]]], "config": {"kernel_size": [1, 1], "kernel_initializer": {"class_name": "VarianceScaling", "config": {"distribution": "uniform", "seed": null, "mode": "fan_avg", "scale": 1.0}}, "use_bias": false, "bias_constraint": null, "trainable": true, "strides": [1, 1], "bias_regularizer": null, "bias_initializer": {"class_name": "Zeros", "config": {}}, "padding": "valid", "activity_regularizer": null, "name": "conv2_1_1x1_increase", "filters": 256, "activation": "linear", "kernel_regularizer": null, "dilation_rate": [1, 1], "data_format": "channels_last", "kernel_constraint": null}}, {"name": "conv2_1_1x1_proj", "class_name": "Conv2D", "inbound_nodes": [[["activation_4", 0, 0, {}]]], "config": {"kernel_size": [1, 1], "kernel_initializer": {"class_name": "VarianceScaling", "config": {"distribution": "uniform", "seed": null, "mode": "fan_avg", "scale": 1.0}}, "use_bias": false, "bias_constraint": null, "trainable": true, "strides": [1, 1], "bias_regularizer": null, "bias_initializer": {"class_name": "Zeros", "config": {}}, "padding": "valid", "activity_regularizer": null, "name": "conv2_1_1x1_proj", "filters": 256, "activation": "linear", "kernel_regularizer": null, "dilation_rate": [1, 1], "data_format": "channels_last", "kernel_constraint": null}}, {"name": "conv2_1_1x1_increase_bn", "class_name": "BatchNormalization", "inbound_nodes": [[["conv2_1_1x1_increase", 0, 0, {}]]], "config": {"momentum": 0.95, "moving_variance_initializer": {"class_name": "Ones", "config": {}}, "beta_regularizer": null, "axis": -1, "gamma_constraint": null, "beta_initializer": {"class_name": "Zeros", "config": {}}, "scale": true, "gamma_initializer": {"class_name": "Ones", "config": {}}, "gamma_regularizer": null, "moving_mean_initializer": {"class_name": "Zeros", "config": {}}, "name": "conv2_1_1x1_increase_bn", "epsilon": 1e-05, "beta_constraint": null, "trainable": true, "center": true}}, {"name": "conv2_1_1x1_proj_bn", "class_name": "BatchNormalization", "inbound_nodes": [[["conv2_1_1x1_proj", 0, 0, {}]]], "config": {"momentum": 0.95, "moving_variance_initializer": {"class_name": "Ones", "config": {}}, "beta_regularizer": null, "axis": -1, "gamma_constraint": null, "beta_initializer": {"class_name": "Zeros", "config": {}}, "scale": true, "gamma_initializer": {"class_name": "Ones", "config": {}}, "gamma_regularizer": null, "moving_mean_initializer": {"class_name": "Zeros", "config": {}}, "name": "conv2_1_1x1_proj_bn", "epsilon": 1e-05, "beta_constraint": null, "trainable": true, "center": true}}, {"name": "add_1", "class_name": "Add", "inbound_nodes": [[["conv2_1_1x1_increase_bn", 0, 0, {}], ["conv2_1_1x1_proj_bn", 0, 0, {}]]], "config": {"name": "add_1", "trainable": true}}, {"name": "activation_7", "class_name": "Activation", "inbound_nodes": [[["add_1", 0, 0, {}]]], "config": {"name": "activation_7", "activation": "relu", "trainable": true}}, {"name": "conv2_2_1x1_reduce", "class_name": "Conv2D", "inbound_nodes": [[["activation_7", 0, 0, {}]]], "config": {"kernel_size": [1, 1], "kernel_initializer": {"class_name": "VarianceScaling", "config": {"distribution": "uniform", "seed": null, "mode": "fan_avg", "scale": 1.0}}, "use_bias": false, "bias_constraint": null, "trainable": true, "strides": [1, 1], "bias_regularizer": null, "bias_initializer": {"class_name": "Zeros", "config": {}}, "padding": "valid", "activity_regularizer": null, "name": "conv2_2_1x1_reduce", "filters": 64, "activation": "linear", "kernel_regularizer": null, "dilation_rate": [1, 1], "data_format": "channels_last", "kernel_constraint": null}}, {"name": "conv2_2_1x1_reduce_bn", "class_name": "BatchNormalization", "inbound_nodes": [[["conv2_2_1x1_reduce", 0, 0, {}]]], "config": {"momentum": 0.95, "moving_variance_initializer": {"class_name": "Ones", "config": {}}, "beta_regularizer": null, "axis": -1, "gamma_constraint": null, "beta_initializer": {"class_name": "Zeros", "config": {}}, "scale": true, "gamma_initializer": {"class_name": "Ones", "config": {}}, "gamma_regularizer": null, "moving_mean_initializer": {"class_name": "Zeros", "config": {}}, "name": "conv2_2_1x1_reduce_bn", "epsilon": 1e-05, "beta_constraint": null, "trainable": true, "center": true}}, {"name": "activation_8", "class_name": "Activation", "inbound_nodes": [[["conv2_2_1x1_reduce_bn", 0, 0, {}]]], "config": {"name": "activation_8", "activation": "relu", "trainable": true}}, {"name": "zero_padding2d_2", "class_name": "ZeroPadding2D", "inbound_nodes": [[["activation_8", 0, 0, {}]]], "config": {"name": "zero_padding2d_2", "data_format": "channels_last", "trainable": true, "padding": [[1, 1], [1, 1]]}}, {"name": "conv2_2_3x3", "class_name": "Conv2D", "inbound_nodes": [[["zero_padding2d_2", 0, 0, {}]]], "config": {"kernel_size": [3, 3], "kernel_initializer": {"class_name": "VarianceScaling", "config": {"distribution": "uniform", "seed": null, "mode": "fan_avg", "scale": 1.0}}, "use_bias": false, "bias_constraint": null, "trainable": true, "strides": [1, 1], "bias_regularizer": null, "bias_initializer": {"class_name": "Zeros", "config": {}}, "padding": "valid", "activity_regularizer": null, "name": "conv2_2_3x3", "filters": 64, "activation": "linear", "kernel_regularizer": null, "dilation_rate": [1, 1], "data_format": "channels_last", "kernel_constraint": null}}, {"name": "conv2_2_3x3_bn", "class_name": "BatchNormalization", "inbound_nodes": [[["conv2_2_3x3", 0, 0, {}]]], "config": {"momentum": 0.95, "moving_variance_initializer": {"class_name": "Ones", "config": {}}, "beta_regularizer": null, "axis": -1, "gamma_constraint": null, "beta_initializer": {"class_name": "Zeros", "config": {}}, "scale": true, "gamma_initializer": {"class_name": "Ones", "config": {}}, "gamma_regularizer": null, "moving_mean_initializer": {"class_name": "Zeros", "config": {}}, "name": "conv2_2_3x3_bn", "epsilon": 1e-05, "beta_constraint": null, "trainable": true, "center": true}}, {"name": "activation_9", "class_name": "Activation", "inbound_nodes": [[["conv2_2_3x3_bn", 0, 0, {}]]], "config": {"name": "activation_9", "activation": "relu", "trainable": true}}, {"name": "conv2_2_1x1_increase", "class_name": "Conv2D", "inbound_nodes": [[["activation_9", 0, 0, {}]]], "config": {"kernel_size": [1, 1], "kernel_initializer": {"class_name": "VarianceScaling", "config": {"distribution": "uniform", "seed": null, "mode": "fan_avg", "scale": 1.0}}, "use_bias": false, "bias_constraint": null, "trainable": true, "strides": [1, 1], "bias_regularizer": null, "bias_initializer": {"class_name": "Zeros", "config": {}}, "padding": "valid", "activity_regularizer": null, "name": "conv2_2_1x1_increase", "filters": 256, "activation": "linear", "kernel_regularizer": null, "dilation_rate": [1, 1], "data_format": "channels_last", "kernel_constraint": null}}, {"name": "conv2_2_1x1_increase_bn", "class_name": "BatchNormalization", "inbound_nodes": [[["conv2_2_1x1_increase", 0, 0, {}]]], "config": {"momentum": 0.95, "moving_variance_initializer": {"class_name": "Ones", "config": {}}, "beta_regularizer": null, "axis": -1, "gamma_constraint": null, "beta_initializer": {"class_name": "Zeros", "config": {}}, "scale": true, "gamma_initializer": {"class_name": "Ones", "config": {}}, "gamma_regularizer": null, "moving_mean_initializer": {"class_name": "Zeros", "config": {}}, "name": "conv2_2_1x1_increase_bn", "epsilon": 1e-05, "beta_constraint": null, "trainable": true, "center": true}}, {"name": "add_2", "class_name": "Add", "inbound_nodes": [[["conv2_2_1x1_increase_bn", 0, 0, {}], ["activation_7", 0, 0, {}]]], "config": {"name": "add_2", "trainable": true}}, {"name": "activation_10", "class_name": "Activation", "inbound_nodes": [[["add_2", 0, 0, {}]]], "config": {"name": "activation_10", "activation": "relu", "trainable": true}}, {"name": "conv2_3_1x1_reduce", "class_name": "Conv2D", "inbound_nodes": [[["activation_10", 0, 0, {}]]], "config": {"kernel_size": [1, 1], "kernel_initializer": {"class_name": "VarianceScaling", "config": {"distribution": "uniform", "seed": null, "mode": "fan_avg", "scale": 1.0}}, "use_bias": false, "bias_constraint": null, "trainable": true, "strides": [1, 1], "bias_regularizer": null, "bias_initializer": {"class_name": "Zeros", "config": {}}, "padding": "valid", "activity_regularizer": null, "name": "conv2_3_1x1_reduce", "filters": 64, "activation": "linear", "kernel_regularizer": null, "dilation_rate": [1, 1], "data_format": "channels_last", "kernel_constraint": null}}, {"name": "conv2_3_1x1_reduce_bn", "class_name": "BatchNormalization", "inbound_nodes": [[["conv2_3_1x1_reduce", 0, 0, {}]]], "config": {"momentum": 0.95, "moving_variance_initializer": {"class_name": "Ones", "config": {}}, "beta_regularizer": null, "axis": -1, "gamma_constraint": null, "beta_initializer": {"class_name": "Zeros", "config": {}}, "scale": true, "gamma_initializer": {"class_name": "Ones", "config": {}}, "gamma_regularizer": null, "moving_mean_initializer": {"class_name": "Zeros", "config": {}}, "name": "conv2_3_1x1_reduce_bn", "epsilon": 1e-05, "beta_constraint": null, "trainable": true, "center": true}}, {"name": "activation_11", "class_name": "Activation", "inbound_nodes": [[["conv2_3_1x1_reduce_bn", 0, 0, {}]]], "config": {"name": "activation_11", "activation": "relu", "trainable": true}}, {"name": "zero_padding2d_3", "class_name": "ZeroPadding2D", "inbound_nodes": [[["activation_11", 0, 0, {}]]], "config": {"name": "zero_padding2d_3", "data_format": "channels_last", "trainable": true, "padding": [[1, 1], [1, 1]]}}, {"name": "conv2_3_3x3", "class_name": "Conv2D", "inbound_nodes": [[["zero_padding2d_3", 0, 0, {}]]], "config": {"kernel_size": [3, 3], "kernel_initializer": {"class_name": "VarianceScaling", "config": {"distribution": "uniform", "seed": null, "mode": "fan_avg", "scale": 1.0}}, "use_bias": false, "bias_constraint": null, "trainable": true, "strides": [1, 1], "bias_regularizer": null, "bias_initializer": {"class_name": "Zeros", "config": {}}, "padding": "valid", "activity_regularizer": null, "name": "conv2_3_3x3", "filters": 64, "activation": "linear", "kernel_regularizer": null, "dilation_rate": [1, 1], "data_format": "channels_last", "kernel_constraint": null}}, {"name": "conv2_3_3x3_bn", "class_name": "BatchNormalization", "inbound_nodes": [[["conv2_3_3x3", 0, 0, {}]]], "config": {"momentum": 0.95, "moving_variance_initializer": {"class_name": "Ones", "config": {}}, "beta_regularizer": null, "axis": -1, "gamma_constraint": null, "beta_initializer": {"class_name": "Zeros", "config": {}}, "scale": true, "gamma_initializer": {"class_name": "Ones", "config": {}}, "gamma_regularizer": null, "moving_mean_initializer": {"class_name": "Zeros", "config": {}}, "name": "conv2_3_3x3_bn", "epsilon": 1e-05, "beta_constraint": null, "trainable": true, "center": true}}, {"name": "activation_12", "class_name": "Activation", "inbound_nodes": [[["conv2_3_3x3_bn", 0, 0, {}]]], "config": {"name": "activation_12", "activation": "relu", "trainable": true}}, {"name": "conv2_3_1x1_increase", "class_name": "Conv2D", "inbound_nodes": [[["activation_12", 0, 0, {}]]], "config": {"kernel_size": [1, 1], "kernel_initializer": {"class_name": "VarianceScaling", "config": {"distribution": "uniform", "seed": null, "mode": "fan_avg", "scale": 1.0}}, "use_bias": false, "bias_constraint": null, "trainable": true, "strides": [1, 1], "bias_regularizer": null, "bias_initializer": {"class_name": "Zeros", "config": {}}, "padding": "valid", "activity_regularizer": null, "name": "conv2_3_1x1_increase", "filters": 256, "activation": "linear", "kernel_regularizer": null, "dilation_rate": [1, 1], "data_format": "channels_last", "kernel_constraint": null}}, {"name": "conv2_3_1x1_increase_bn", "class_name": "BatchNormalization", "inbound_nodes": [[["conv2_3_1x1_increase", 0, 0, {}]]], "config": {"momentum": 0.95, "moving_variance_initializer": {"class_name": "Ones", "config": {}}, "beta_regularizer": null, "axis": -1, "gamma_constraint": null, "beta_initializer": {"class_name": "Zeros", "config": {}}, "scale": true, "gamma_initializer": {"class_name": "Ones", "config": {}}, "gamma_regularizer": null, "moving_mean_initializer": {"class_name": "Zeros", "config": {}}, "name": "conv2_3_1x1_increase_bn", "epsilon": 1e-05, "beta_constraint": null, "trainable": true, "center": true}}, {"name": "add_3", "class_name": "Add", "inbound_nodes": [[["conv2_3_1x1_increase_bn", 0, 0, {}], ["activation_10", 0, 0, {}]]], "config": {"name": "add_3", "trainable": true}}, {"name": "activation_13", "class_name": "Activation", "inbound_nodes": [[["add_3", 0, 0, {}]]], "config": {"name": "activation_13", "activation": "relu", "trainable": true}}, {"name": "conv3_1_1x1_reduce", "class_name": "Conv2D", "inbound_nodes": [[["activation_13", 0, 0, {}]]], "config": {"kernel_size": [1, 1], "kernel_initializer": {"class_name": "VarianceScaling", "config": {"distribution": "uniform", "seed": null, "mode": "fan_avg", "scale": 1.0}}, "use_bias": false, "bias_constraint": null, "trainable": true, "strides": [2, 2], "bias_regularizer": null, "bias_initializer": {"class_name": "Zeros", "config": {}}, "padding": "valid", "activity_regularizer": null, "name": "conv3_1_1x1_reduce", "filters": 128, "activation": "linear", "kernel_regularizer": null, "dilation_rate": [1, 1], "data_format": "channels_last", "kernel_constraint": null}}, {"name": "conv3_1_1x1_reduce_bn", "class_name": "BatchNormalization", "inbound_nodes": [[["conv3_1_1x1_reduce", 0, 0, {}]]], "config": {"momentum": 0.95, "moving_variance_initializer": {"class_name": "Ones", "config": {}}, "beta_regularizer": null, "axis": -1, "gamma_constraint": null, "beta_initializer": {"class_name": "Zeros", "config": {}}, "scale": true, "gamma_initializer": {"class_name": "Ones", "config": {}}, "gamma_regularizer": null, "moving_mean_initializer": {"class_name": "Zeros", "config": {}}, "name": "conv3_1_1x1_reduce_bn", "epsilon": 1e-05, "beta_constraint": null, "trainable": true, "center": true}}, {"name": "activation_14", "class_name": "Activation", "inbound_nodes": [[["conv3_1_1x1_reduce_bn", 0, 0, {}]]], "config": {"name": "activation_14", "activation": "relu", "trainable": true}}, {"name": "zero_padding2d_4", "class_name": "ZeroPadding2D", "inbound_nodes": [[["activation_14", 0, 0, {}]]], "config": {"name": "zero_padding2d_4", "data_format": "channels_last", "trainable": true, "padding": [[1, 1], [1, 1]]}}, {"name": "conv3_1_3x3", "class_name": "Conv2D", "inbound_nodes": [[["zero_padding2d_4", 0, 0, {}]]], "config": {"kernel_size": [3, 3], "kernel_initializer": {"class_name": "VarianceScaling", "config": {"distribution": "uniform", "seed": null, "mode": "fan_avg", "scale": 1.0}}, "use_bias": false, "bias_constraint": null, "trainable": true, "strides": [1, 1], "bias_regularizer": null, "bias_initializer": {"class_name": "Zeros", "config": {}}, "padding": "valid", "activity_regularizer": null, "name": "conv3_1_3x3", "filters": 128, "activation": "linear", "kernel_regularizer": null, "dilation_rate": [1, 1], "data_format": "channels_last", "kernel_constraint": null}}, {"name": "conv3_1_3x3_bn", "class_name": "BatchNormalization", "inbound_nodes": [[["conv3_1_3x3", 0, 0, {}]]], "config": {"momentum": 0.95, "moving_variance_initializer": {"class_name": "Ones", "config": {}}, "beta_regularizer": null, "axis": -1, "gamma_constraint": null, "beta_initializer": {"class_name": "Zeros", "config": {}}, "scale": true, "gamma_initializer": {"class_name": "Ones", "config": {}}, "gamma_regularizer": null, "moving_mean_initializer": {"class_name": "Zeros", "config": {}}, "name": "conv3_1_3x3_bn", "epsilon": 1e-05, "beta_constraint": null, "trainable": true, "center": true}}, {"name": "activation_15", "class_name": "Activation", "inbound_nodes": [[["conv3_1_3x3_bn", 0, 0, {}]]], "config": {"name": "activation_15", "activation": "relu", "trainable": true}}, {"name": "conv3_1_1x1_increase", "class_name": "Conv2D", "inbound_nodes": [[["activation_15", 0, 0, {}]]], "config": {"kernel_size": [1, 1], "kernel_initializer": {"class_name": "VarianceScaling", "config": {"distribution": "uniform", "seed": null, "mode": "fan_avg", "scale": 1.0}}, "use_bias": false, "bias_constraint": null, "trainable": true, "strides": [1, 1], "bias_regularizer": null, "bias_initializer": {"class_name": "Zeros", "config": {}}, "padding": "valid", "activity_regularizer": null, "name": "conv3_1_1x1_increase", "filters": 512, "activation": "linear", "kernel_regularizer": null, "dilation_rate": [1, 1], "data_format": "channels_last", "kernel_constraint": null}}, {"name": "conv3_1_1x1_proj", "class_name": "Conv2D", "inbound_nodes": [[["activation_13", 0, 0, {}]]], "config": {"kernel_size": [1, 1], "kernel_initializer": {"class_name": "VarianceScaling", "config": {"distribution": "uniform", "seed": null, "mode": "fan_avg", "scale": 1.0}}, "use_bias": false, "bias_constraint": null, "trainable": true, "strides": [2, 2], "bias_regularizer": null, "bias_initializer": {"class_name": "Zeros", "config": {}}, "padding": "valid", "activity_regularizer": null, "name": "conv3_1_1x1_proj", "filters": 512, "activation": "linear", "kernel_regularizer": null, "dilation_rate": [1, 1], "data_format": "channels_last", "kernel_constraint": null}}, {"name": "conv3_1_1x1_increase_bn", "class_name": "BatchNormalization", "inbound_nodes": [[["conv3_1_1x1_increase", 0, 0, {}]]], "config": {"momentum": 0.95, "moving_variance_initializer": {"class_name": "Ones", "config": {}}, "beta_regularizer": null, "axis": -1, "gamma_constraint": null, "beta_initializer": {"class_name": "Zeros", "config": {}}, "scale": true, "gamma_initializer": {"class_name": "Ones", "config": {}}, "gamma_regularizer": null, "moving_mean_initializer": {"class_name": "Zeros", "config": {}}, "name": "conv3_1_1x1_increase_bn", "epsilon": 1e-05, "beta_constraint": null, "trainable": true, "center": true}}, {"name": "conv3_1_1x1_proj_bn", "class_name": "BatchNormalization", "inbound_nodes": [[["conv3_1_1x1_proj", 0, 0, {}]]], "config": {"momentum": 0.95, "moving_variance_initializer": {"class_name": "Ones", "config": {}}, "beta_regularizer": null, "axis": -1, "gamma_constraint": null, "beta_initializer": {"class_name": "Zeros", "config": {}}, "scale": true, "gamma_initializer": {"class_name": "Ones", "config": {}}, "gamma_regularizer": null, "moving_mean_initializer": {"class_name": "Zeros", "config": {}}, "name": "conv3_1_1x1_proj_bn", "epsilon": 1e-05, "beta_constraint": null, "trainable": true, "center": true}}, {"name": "add_4", "class_name": "Add", "inbound_nodes": [[["conv3_1_1x1_increase_bn", 0, 0, {}], ["conv3_1_1x1_proj_bn", 0, 0, {}]]], "config": {"name": "add_4", "trainable": true}}, {"name": "activation_16", "class_name": "Activation", "inbound_nodes": [[["add_4", 0, 0, {}]]], "config": {"name": "activation_16", "activation": "relu", "trainable": true}}, {"name": "conv3_2_1x1_reduce", "class_name": "Conv2D", "inbound_nodes": [[["activation_16", 0, 0, {}]]], "config": {"kernel_size": [1, 1], "kernel_initializer": {"class_name": "VarianceScaling", "config": {"distribution": "uniform", "seed": null, "mode": "fan_avg", "scale": 1.0}}, "use_bias": false, "bias_constraint": null, "trainable": true, "strides": [1, 1], "bias_regularizer": null, "bias_initializer": {"class_name": "Zeros", "config": {}}, "padding": "valid", "activity_regularizer": null, "name": "conv3_2_1x1_reduce", "filters": 128, "activation": "linear", "kernel_regularizer": null, "dilation_rate": [1, 1], "data_format": "channels_last", "kernel_constraint": null}}, {"name": "conv3_2_1x1_reduce_bn", "class_name": "BatchNormalization", "inbound_nodes": [[["conv3_2_1x1_reduce", 0, 0, {}]]], "config": {"momentum": 0.95, "moving_variance_initializer": {"class_name": "Ones", "config": {}}, "beta_regularizer": null, "axis": -1, "gamma_constraint": null, "beta_initializer": {"class_name": "Zeros", "config": {}}, "scale": true, "gamma_initializer": {"class_name": "Ones", "config": {}}, "gamma_regularizer": null, "moving_mean_initializer": {"class_name": "Zeros", "config": {}}, "name": "conv3_2_1x1_reduce_bn", "epsilon": 1e-05, "beta_constraint": null, "trainable": true, "center": true}}, {"name": "activation_17", "class_name": "Activation", "inbound_nodes": [[["conv3_2_1x1_reduce_bn", 0, 0, {}]]], "config": {"name": "activation_17", "activation": "relu", "trainable": true}}, {"name": "zero_padding2d_5", "class_name": "ZeroPadding2D", "inbound_nodes": [[["activation_17", 0, 0, {}]]], "config": {"name": "zero_padding2d_5", "data_format": "channels_last", "trainable": true, "padding": [[1, 1], [1, 1]]}}, {"name": "conv3_2_3x3", "class_name": "Conv2D", "inbound_nodes": [[["zero_padding2d_5", 0, 0, {}]]], "config": {"kernel_size": [3, 3], "kernel_initializer": {"class_name": "VarianceScaling", "config": {"distribution": "uniform", "seed": null, "mode": "fan_avg", "scale": 1.0}}, "use_bias": false, "bias_constraint": null, "trainable": true, "strides": [1, 1], "bias_regularizer": null, "bias_initializer": {"class_name": "Zeros", "config": {}}, "padding": "valid", "activity_regularizer": null, "name": "conv3_2_3x3", "filters": 128, "activation": "linear", "kernel_regularizer": null, "dilation_rate": [1, 1], "data_format": "channels_last", "kernel_constraint": null}}, {"name": "conv3_2_3x3_bn", "class_name": "BatchNormalization", "inbound_nodes": [[["conv3_2_3x3", 0, 0, {}]]], "config": {"momentum": 0.95, "moving_variance_initializer": {"class_name": "Ones", "config": {}}, "beta_regularizer": null, "axis": -1, "gamma_constraint": null, "beta_initializer": {"class_name": "Zeros", "config": {}}, "scale": true, "gamma_initializer": {"class_name": "Ones", "config": {}}, "gamma_regularizer": null, "moving_mean_initializer": {"class_name": "Zeros", "config": {}}, "name": "conv3_2_3x3_bn", "epsilon": 1e-05, "beta_constraint": null, "trainable": true, "center": true}}, {"name": "activation_18", "class_name": "Activation", "inbound_nodes": [[["conv3_2_3x3_bn", 0, 0, {}]]], "config": {"name": "activation_18", "activation": "relu", "trainable": true}}, {"name": "conv3_2_1x1_increase", "class_name": "Conv2D", "inbound_nodes": [[["activation_18", 0, 0, {}]]], "config": {"kernel_size": [1, 1], "kernel_initializer": {"class_name": "VarianceScaling", "config": {"distribution": "uniform", "seed": null, "mode": "fan_avg", "scale": 1.0}}, "use_bias": false, "bias_constraint": null, "trainable": true, "strides": [1, 1], "bias_regularizer": null, "bias_initializer": {"class_name": "Zeros", "config": {}}, "padding": "valid", "activity_regularizer": null, "name": "conv3_2_1x1_increase", "filters": 512, "activation": "linear", "kernel_regularizer": null, "dilation_rate": [1, 1], "data_format": "channels_last", "kernel_constraint": null}}, {"name": "conv3_2_1x1_increase_bn", "class_name": "BatchNormalization", "inbound_nodes": [[["conv3_2_1x1_increase", 0, 0, {}]]], "config": {"momentum": 0.95, "moving_variance_initializer": {"class_name": "Ones", "config": {}}, "beta_regularizer": null, "axis": -1, "gamma_constraint": null, "beta_initializer": {"class_name": "Zeros", "config": {}}, "scale": true, "gamma_initializer": {"class_name": "Ones", "config": {}}, "gamma_regularizer": null, "moving_mean_initializer": {"class_name": "Zeros", "config": {}}, "name": "conv3_2_1x1_increase_bn", "epsilon": 1e-05, "beta_constraint": null, "trainable": true, "center": true}}, {"name": "add_5", "class_name": "Add", "inbound_nodes": [[["conv3_2_1x1_increase_bn", 0, 0, {}], ["activation_16", 0, 0, {}]]], "config": {"name": "add_5", "trainable": true}}, {"name": "activation_19", "class_name": "Activation", "inbound_nodes": [[["add_5", 0, 0, {}]]], "config": {"name": "activation_19", "activation": "relu", "trainable": true}}, {"name": "conv3_3_1x1_reduce", "class_name": "Conv2D", "inbound_nodes": [[["activation_19", 0, 0, {}]]], "config": {"kernel_size": [1, 1], "kernel_initializer": {"class_name": "VarianceScaling", "config": {"distribution": "uniform", "seed": null, "mode": "fan_avg", "scale": 1.0}}, "use_bias": false, "bias_constraint": null, "trainable": true, "strides": [1, 1], "bias_regularizer": null, "bias_initializer": {"class_name": "Zeros", "config": {}}, "padding": "valid", "activity_regularizer": null, "name": "conv3_3_1x1_reduce", "filters": 128, "activation": "linear", "kernel_regularizer": null, "dilation_rate": [1, 1], "data_format": "channels_last", "kernel_constraint": null}}, {"name": "conv3_3_1x1_reduce_bn", "class_name": "BatchNormalization", "inbound_nodes": [[["conv3_3_1x1_reduce", 0, 0, {}]]], "config": {"momentum": 0.95, "moving_variance_initializer": {"class_name": "Ones", "config": {}}, "beta_regularizer": null, "axis": -1, "gamma_constraint": null, "beta_initializer": {"class_name": "Zeros", "config": {}}, "scale": true, "gamma_initializer": {"class_name": "Ones", "config": {}}, "gamma_regularizer": null, "moving_mean_initializer": {"class_name": "Zeros", "config": {}}, "name": "conv3_3_1x1_reduce_bn", "epsilon": 1e-05, "beta_constraint": null, "trainable": true, "center": true}}, {"name": "activation_20", "class_name": "Activation", "inbound_nodes": [[["conv3_3_1x1_reduce_bn", 0, 0, {}]]], "config": {"name": "activation_20", "activation": "relu", "trainable": true}}, {"name": "zero_padding2d_6", "class_name": "ZeroPadding2D", "inbound_nodes": [[["activation_20", 0, 0, {}]]], "config": {"name": "zero_padding2d_6", "data_format": "channels_last", "trainable": true, "padding": [[1, 1], [1, 1]]}}, {"name": "conv3_3_3x3", "class_name": "Conv2D", "inbound_nodes": [[["zero_padding2d_6", 0, 0, {}]]], "config": {"kernel_size": [3, 3], "kernel_initializer": {"class_name": "VarianceScaling", "config": {"distribution": "uniform", "seed": null, "mode": "fan_avg", "scale": 1.0}}, "use_bias": false, "bias_constraint": null, "trainable": true, "strides": [1, 1], "bias_regularizer": null, "bias_initializer": {"class_name": "Zeros", "config": {}}, "padding": "valid", "activity_regularizer": null, "name": "conv3_3_3x3", "filters": 128, "activation": "linear", "kernel_regularizer": null, "dilation_rate": [1, 1], "data_format": "channels_last", "kernel_constraint": null}}, {"name": "conv3_3_3x3_bn", "class_name": "BatchNormalization", "inbound_nodes": [[["conv3_3_3x3", 0, 0, {}]]], "config": {"momentum": 0.95, "moving_variance_initializer": {"class_name": "Ones", "config": {}}, "beta_regularizer": null, "axis": -1, "gamma_constraint": null, "beta_initializer": {"class_name": "Zeros", "config": {}}, "scale": true, "gamma_initializer": {"class_name": "Ones", "config": {}}, "gamma_regularizer": null, "moving_mean_initializer": {"class_name": "Zeros", "config": {}}, "name": "conv3_3_3x3_bn", "epsilon": 1e-05, "beta_constraint": null, "trainable": true, "center": true}}, {"name": "activation_21", "class_name": "Activation", "inbound_nodes": [[["conv3_3_3x3_bn", 0, 0, {}]]], "config": {"name": "activation_21", "activation": "relu", "trainable": true}}, {"name": "conv3_3_1x1_increase", "class_name": "Conv2D", "inbound_nodes": [[["activation_21", 0, 0, {}]]], "config": {"kernel_size": [1, 1], "kernel_initializer": {"class_name": "VarianceScaling", "config": {"distribution": "uniform", "seed": null, "mode": "fan_avg", "scale": 1.0}}, "use_bias": false, "bias_constraint": null, "trainable": true, "strides": [1, 1], "bias_regularizer": null, "bias_initializer": {"class_name": "Zeros", "config": {}}, "padding": "valid", "activity_regularizer": null, "name": "conv3_3_1x1_increase", "filters": 512, "activation": "linear", "kernel_regularizer": null, "dilation_rate": [1, 1], "data_format": "channels_last", "kernel_constraint": null}}, {"name": "conv3_3_1x1_increase_bn", "class_name": "BatchNormalization", "inbound_nodes": [[["conv3_3_1x1_increase", 0, 0, {}]]], "config": {"momentum": 0.95, "moving_variance_initializer": {"class_name": "Ones", "config": {}}, "beta_regularizer": null, "axis": -1, "gamma_constraint": null, "beta_initializer": {"class_name": "Zeros", "config": {}}, "scale": true, "gamma_initializer": {"class_name": "Ones", "config": {}}, "gamma_regularizer": null, "moving_mean_initializer": {"class_name": "Zeros", "config": {}}, "name": "conv3_3_1x1_increase_bn", "epsilon": 1e-05, "beta_constraint": null, "trainable": true, "center": true}}, {"name": "add_6", "class_name": "Add", "inbound_nodes": [[["conv3_3_1x1_increase_bn", 0, 0, {}], ["activation_19", 0, 0, {}]]], "config": {"name": "add_6", "trainable": true}}, {"name": "activation_22", "class_name": "Activation", "inbound_nodes": [[["add_6", 0, 0, {}]]], "config": {"name": "activation_22", "activation": "relu", "trainable": true}}, {"name": "conv3_4_1x1_reduce", "class_name": "Conv2D", "inbound_nodes": [[["activation_22", 0, 0, {}]]], "config": {"kernel_size": [1, 1], "kernel_initializer": {"class_name": "VarianceScaling", "config": {"distribution": "uniform", "seed": null, "mode": "fan_avg", "scale": 1.0}}, "use_bias": false, "bias_constraint": null, "trainable": true, "strides": [1, 1], "bias_regularizer": null, "bias_initializer": {"class_name": "Zeros", "config": {}}, "padding": "valid", "activity_regularizer": null, "name": "conv3_4_1x1_reduce", "filters": 128, "activation": "linear", "kernel_regularizer": null, "dilation_rate": [1, 1], "data_format": "channels_last", "kernel_constraint": null}}, {"name": "conv3_4_1x1_reduce_bn", "class_name": "BatchNormalization", "inbound_nodes": [[["conv3_4_1x1_reduce", 0, 0, {}]]], "config": {"momentum": 0.95, "moving_variance_initializer": {"class_name": "Ones", "config": {}}, "beta_regularizer": null, "axis": -1, "gamma_constraint": null, "beta_initializer": {"class_name": "Zeros", "config": {}}, "scale": true, "gamma_initializer": {"class_name": "Ones", "config": {}}, "gamma_regularizer": null, "moving_mean_initializer": {"class_name": "Zeros", "config": {}}, "name": "conv3_4_1x1_reduce_bn", "epsilon": 1e-05, "beta_constraint": null, "trainable": true, "center": true}}, {"name": "activation_23", "class_name": "Activation", "inbound_nodes": [[["conv3_4_1x1_reduce_bn", 0, 0, {}]]], "config": {"name": "activation_23", "activation": "relu", "trainable": true}}, {"name": "zero_padding2d_7", "class_name": "ZeroPadding2D", "inbound_nodes": [[["activation_23", 0, 0, {}]]], "config": {"name": "zero_padding2d_7", "data_format": "channels_last", "trainable": true, "padding": [[1, 1], [1, 1]]}}, {"name": "conv3_4_3x3", "class_name": "Conv2D", "inbound_nodes": [[["zero_padding2d_7", 0, 0, {}]]], "config": {"kernel_size": [3, 3], "kernel_initializer": {"class_name": "VarianceScaling", "config": {"distribution": "uniform", "seed": null, "mode": "fan_avg", "scale": 1.0}}, "use_bias": false, "bias_constraint": null, "trainable": true, "strides": [1, 1], "bias_regularizer": null, "bias_initializer": {"class_name": "Zeros", "config": {}}, "padding": "valid", "activity_regularizer": null, "name": "conv3_4_3x3", "filters": 128, "activation": "linear", "kernel_regularizer": null, "dilation_rate": [1, 1], "data_format": "channels_last", "kernel_constraint": null}}, {"name": "conv3_4_3x3_bn", "class_name": "BatchNormalization", "inbound_nodes": [[["conv3_4_3x3", 0, 0, {}]]], "config": {"momentum": 0.95, "moving_variance_initializer": {"class_name": "Ones", "config": {}}, "beta_regularizer": null, "axis": -1, "gamma_constraint": null, "beta_initializer": {"class_name": "Zeros", "config": {}}, "scale": true, "gamma_initializer": {"class_name": "Ones", "config": {}}, "gamma_regularizer": null, "moving_mean_initializer": {"class_name": "Zeros", "config": {}}, "name": "conv3_4_3x3_bn", "epsilon": 1e-05, "beta_constraint": null, "trainable": true, "center": true}}, {"name": "activation_24", "class_name": "Activation", "inbound_nodes": [[["conv3_4_3x3_bn", 0, 0, {}]]], "config": {"name": "activation_24", "activation": "relu", "trainable": true}}, {"name": "conv3_4_1x1_increase", "class_name": "Conv2D", "inbound_nodes": [[["activation_24", 0, 0, {}]]], "config": {"kernel_size": [1, 1], "kernel_initializer": {"class_name": "VarianceScaling", "config": {"distribution": "uniform", "seed": null, "mode": "fan_avg", "scale": 1.0}}, "use_bias": false, "bias_constraint": null, "trainable": true, "strides": [1, 1], "bias_regularizer": null, "bias_initializer": {"class_name": "Zeros", "config": {}}, "padding": "valid", "activity_regularizer": null, "name": "conv3_4_1x1_increase", "filters": 512, "activation": "linear", "kernel_regularizer": null, "dilation_rate": [1, 1], "data_format": "channels_last", "kernel_constraint": null}}, {"name": "conv3_4_1x1_increase_bn", "class_name": "BatchNormalization", "inbound_nodes": [[["conv3_4_1x1_increase", 0, 0, {}]]], "config": {"momentum": 0.95, "moving_variance_initializer": {"class_name": "Ones", "config": {}}, "beta_regularizer": null, "axis": -1, "gamma_constraint": null, "beta_initializer": {"class_name": "Zeros", "config": {}}, "scale": true, "gamma_initializer": {"class_name": "Ones", "config": {}}, "gamma_regularizer": null, "moving_mean_initializer": {"class_name": "Zeros", "config": {}}, "name": "conv3_4_1x1_increase_bn", "epsilon": 1e-05, "beta_constraint": null, "trainable": true, "center": true}}, {"name": "add_7", "class_name": "Add", "inbound_nodes": [[["conv3_4_1x1_increase_bn", 0, 0, {}], ["activation_22", 0, 0, {}]]], "config": {"name": "add_7", "trainable": true}}, {"name": "activation_25", "class_name": "Activation", "inbound_nodes": [[["add_7", 0, 0, {}]]], "config": {"name": "activation_25", "activation": "relu", "trainable": true}}, {"name": "conv4_1_1x1_reduce", "class_name": "Conv2D", "inbound_nodes": [[["activation_25", 0, 0, {}]]], "config": {"kernel_size": [1, 1], "kernel_initializer": {"class_name": "VarianceScaling", "config": {"distribution": "uniform", "seed": null, "mode": "fan_avg", "scale": 1.0}}, "use_bias": false, "bias_constraint": null, "trainable": true, "strides": [1, 1], "bias_regularizer": null, "bias_initializer": {"class_name": "Zeros", "config": {}}, "padding": "valid", "activity_regularizer": null, "name": "conv4_1_1x1_reduce", "filters": 256, "activation": "linear", "kernel_regularizer": null, "dilation_rate": [1, 1], "data_format": "channels_last", "kernel_constraint": null}}, {"name": "conv4_1_1x1_reduce_bn", "class_name": "BatchNormalization", "inbound_nodes": [[["conv4_1_1x1_reduce", 0, 0, {}]]], "config": {"momentum": 0.95, "moving_variance_initializer": {"class_name": "Ones", "config": {}}, "beta_regularizer": null, "axis": -1, "gamma_constraint": null, "beta_initializer": {"class_name": "Zeros", "config": {}}, "scale": true, "gamma_initializer": {"class_name": "Ones", "config": {}}, "gamma_regularizer": null, "moving_mean_initializer": {"class_name": "Zeros", "config": {}}, "name": "conv4_1_1x1_reduce_bn", "epsilon": 1e-05, "beta_constraint": null, "trainable": true, "center": true}}, {"name": "activation_26", "class_name": "Activation", "inbound_nodes": [[["conv4_1_1x1_reduce_bn", 0, 0, {}]]], "config": {"name": "activation_26", "activation": "relu", "trainable": true}}, {"name": "zero_padding2d_8", "class_name": "ZeroPadding2D", "inbound_nodes": [[["activation_26", 0, 0, {}]]], "config": {"name": "zero_padding2d_8", "data_format": "channels_last", "trainable": true, "padding": [[2, 2], [2, 2]]}}, {"name": "conv4_1_3x3", "class_name": "Conv2D", "inbound_nodes": [[["zero_padding2d_8", 0, 0, {}]]], "config": {"kernel_size": [3, 3], "kernel_initializer": {"class_name": "VarianceScaling", "config": {"distribution": "uniform", "seed": null, "mode": "fan_avg", "scale": 1.0}}, "use_bias": false, "bias_constraint": null, "trainable": true, "strides": [1, 1], "bias_regularizer": null, "bias_initializer": {"class_name": "Zeros", "config": {}}, "padding": "valid", "activity_regularizer": null, "name": "conv4_1_3x3", "filters": 256, "activation": "linear", "kernel_regularizer": null, "dilation_rate": [2, 2], "data_format": "channels_last", "kernel_constraint": null}}, {"name": "conv4_1_3x3_bn", "class_name": "BatchNormalization", "inbound_nodes": [[["conv4_1_3x3", 0, 0, {}]]], "config": {"momentum": 0.95, "moving_variance_initializer": {"class_name": "Ones", "config": {}}, "beta_regularizer": null, "axis": -1, "gamma_constraint": null, "beta_initializer": {"class_name": "Zeros", "config": {}}, "scale": true, "gamma_initializer": {"class_name": "Ones", "config": {}}, "gamma_regularizer": null, "moving_mean_initializer": {"class_name": "Zeros", "config": {}}, "name": "conv4_1_3x3_bn", "epsilon": 1e-05, "beta_constraint": null, "trainable": true, "center": true}}, {"name": "activation_27", "class_name": "Activation", "inbound_nodes": [[["conv4_1_3x3_bn", 0, 0, {}]]], "config": {"name": "activation_27", "activation": "relu", "trainable": true}}, {"name": "conv4_1_1x1_increase", "class_name": "Conv2D", "inbound_nodes": [[["activation_27", 0, 0, {}]]], "config": {"kernel_size": [1, 1], "kernel_initializer": {"class_name": "VarianceScaling", "config": {"distribution": "uniform", "seed": null, "mode": "fan_avg", "scale": 1.0}}, "use_bias": false, "bias_constraint": null, "trainable": true, "strides": [1, 1], "bias_regularizer": null, "bias_initializer": {"class_name": "Zeros", "config": {}}, "padding": "valid", "activity_regularizer": null, "name": "conv4_1_1x1_increase", "filters": 1024, "activation": "linear", "kernel_regularizer": null, "dilation_rate": [1, 1], "data_format": "channels_last", "kernel_constraint": null}}, {"name": "conv4_1_1x1_proj", "class_name": "Conv2D", "inbound_nodes": [[["activation_25", 0, 0, {}]]], "config": {"kernel_size": [1, 1], "kernel_initializer": {"class_name": "VarianceScaling", "config": {"distribution": "uniform", "seed": null, "mode": "fan_avg", "scale": 1.0}}, "use_bias": false, "bias_constraint": null, "trainable": true, "strides": [1, 1], "bias_regularizer": null, "bias_initializer": {"class_name": "Zeros", "config": {}}, "padding": "valid", "activity_regularizer": null, "name": "conv4_1_1x1_proj", "filters": 1024, "activation": "linear", "kernel_regularizer": null, "dilation_rate": [1, 1], "data_format": "channels_last", "kernel_constraint": null}}, {"name": "conv4_1_1x1_increase_bn", "class_name": "BatchNormalization", "inbound_nodes": [[["conv4_1_1x1_increase", 0, 0, {}]]], "config": {"momentum": 0.95, "moving_variance_initializer": {"class_name": "Ones", "config": {}}, "beta_regularizer": null, "axis": -1, "gamma_constraint": null, "beta_initializer": {"class_name": "Zeros", "config": {}}, "scale": true, "gamma_initializer": {"class_name": "Ones", "config": {}}, "gamma_regularizer": null, "moving_mean_initializer": {"class_name": "Zeros", "config": {}}, "name": "conv4_1_1x1_increase_bn", "epsilon": 1e-05, "beta_constraint": null, "trainable": true, "center": true}}, {"name": "conv4_1_1x1_proj_bn", "class_name": "BatchNormalization", "inbound_nodes": [[["conv4_1_1x1_proj", 0, 0, {}]]], "config": {"momentum": 0.95, "moving_variance_initializer": {"class_name": "Ones", "config": {}}, "beta_regularizer": null, "axis": -1, "gamma_constraint": null, "beta_initializer": {"class_name": "Zeros", "config": {}}, "scale": true, "gamma_initializer": {"class_name": "Ones", "config": {}}, "gamma_regularizer": null, "moving_mean_initializer": {"class_name": "Zeros", "config": {}}, "name": "conv4_1_1x1_proj_bn", "epsilon": 1e-05, "beta_constraint": null, "trainable": true, "center": true}}, {"name": "add_8", "class_name": "Add", "inbound_nodes": [[["conv4_1_1x1_increase_bn", 0, 0, {}], ["conv4_1_1x1_proj_bn", 0, 0, {}]]], "config": {"name": "add_8", "trainable": true}}, {"name": "activation_28", "class_name": "Activation", "inbound_nodes": [[["add_8", 0, 0, {}]]], "config": {"name": "activation_28", "activation": "relu", "trainable": true}}, {"name": "conv4_2_1x1_reduce", "class_name": "Conv2D", "inbound_nodes": [[["activation_28", 0, 0, {}]]], "config": {"kernel_size": [1, 1], "kernel_initializer": {"class_name": "VarianceScaling", "config": {"distribution": "uniform", "seed": null, "mode": "fan_avg", "scale": 1.0}}, "use_bias": false, "bias_constraint": null, "trainable": true, "strides": [1, 1], "bias_regularizer": null, "bias_initializer": {"class_name": "Zeros", "config": {}}, "padding": "valid", "activity_regularizer": null, "name": "conv4_2_1x1_reduce", "filters": 256, "activation": "linear", "kernel_regularizer": null, "dilation_rate": [1, 1], "data_format": "channels_last", "kernel_constraint": null}}, {"name": "conv4_2_1x1_reduce_bn", "class_name": "BatchNormalization", "inbound_nodes": [[["conv4_2_1x1_reduce", 0, 0, {}]]], "config": {"momentum": 0.95, "moving_variance_initializer": {"class_name": "Ones", "config": {}}, "beta_regularizer": null, "axis": -1, "gamma_constraint": null, "beta_initializer": {"class_name": "Zeros", "config": {}}, "scale": true, "gamma_initializer": {"class_name": "Ones", "config": {}}, "gamma_regularizer": null, "moving_mean_initializer": {"class_name": "Zeros", "config": {}}, "name": "conv4_2_1x1_reduce_bn", "epsilon": 1e-05, "beta_constraint": null, "trainable": true, "center": true}}, {"name": "activation_29", "class_name": "Activation", "inbound_nodes": [[["conv4_2_1x1_reduce_bn", 0, 0, {}]]], "config": {"name": "activation_29", "activation": "relu", "trainable": true}}, {"name": "zero_padding2d_9", "class_name": "ZeroPadding2D", "inbound_nodes": [[["activation_29", 0, 0, {}]]], "config": {"name": "zero_padding2d_9", "data_format": "channels_last", "trainable": true, "padding": [[2, 2], [2, 2]]}}, {"name": "conv4_2_3x3", "class_name": "Conv2D", "inbound_nodes": [[["zero_padding2d_9", 0, 0, {}]]], "config": {"kernel_size": [3, 3], "kernel_initializer": {"class_name": "VarianceScaling", "config": {"distribution": "uniform", "seed": null, "mode": "fan_avg", "scale": 1.0}}, "use_bias": false, "bias_constraint": null, "trainable": true, "strides": [1, 1], "bias_regularizer": null, "bias_initializer": {"class_name": "Zeros", "config": {}}, "padding": "valid", "activity_regularizer": null, "name": "conv4_2_3x3", "filters": 256, "activation": "linear", "kernel_regularizer": null, "dilation_rate": [2, 2], "data_format": "channels_last", "kernel_constraint": null}}, {"name": "conv4_2_3x3_bn", "class_name": "BatchNormalization", "inbound_nodes": [[["conv4_2_3x3", 0, 0, {}]]], "config": {"momentum": 0.95, "moving_variance_initializer": {"class_name": "Ones", "config": {}}, "beta_regularizer": null, "axis": -1, "gamma_constraint": null, "beta_initializer": {"class_name": "Zeros", "config": {}}, "scale": true, "gamma_initializer": {"class_name": "Ones", "config": {}}, "gamma_regularizer": null, "moving_mean_initializer": {"class_name": "Zeros", "config": {}}, "name": "conv4_2_3x3_bn", "epsilon": 1e-05, "beta_constraint": null, "trainable": true, "center": true}}, {"name": "activation_30", "class_name": "Activation", "inbound_nodes": [[["conv4_2_3x3_bn", 0, 0, {}]]], "config": {"name": "activation_30", "activation": "relu", "trainable": true}}, {"name": "conv4_2_1x1_increase", "class_name": "Conv2D", "inbound_nodes": [[["activation_30", 0, 0, {}]]], "config": {"kernel_size": [1, 1], "kernel_initializer": {"class_name": "VarianceScaling", "config": {"distribution": "uniform", "seed": null, "mode": "fan_avg", "scale": 1.0}}, "use_bias": false, "bias_constraint": null, "trainable": true, "strides": [1, 1], "bias_regularizer": null, "bias_initializer": {"class_name": "Zeros", "config": {}}, "padding": "valid", "activity_regularizer": null, "name": "conv4_2_1x1_increase", "filters": 1024, "activation": "linear", "kernel_regularizer": null, "dilation_rate": [1, 1], "data_format": "channels_last", "kernel_constraint": null}}, {"name": "conv4_2_1x1_increase_bn", "class_name": "BatchNormalization", "inbound_nodes": [[["conv4_2_1x1_increase", 0, 0, {}]]], "config": {"momentum": 0.95, "moving_variance_initializer": {"class_name": "Ones", "config": {}}, "beta_regularizer": null, "axis": -1, "gamma_constraint": null, "beta_initializer": {"class_name": "Zeros", "config": {}}, "scale": true, "gamma_initializer": {"class_name": "Ones", "config": {}}, "gamma_regularizer": null, "moving_mean_initializer": {"class_name": "Zeros", "config": {}}, "name": "conv4_2_1x1_increase_bn", "epsilon": 1e-05, "beta_constraint": null, "trainable": true, "center": true}}, {"name": "add_9", "class_name": "Add", "inbound_nodes": [[["conv4_2_1x1_increase_bn", 0, 0, {}], ["activation_28", 0, 0, {}]]], "config": {"name": "add_9", "trainable": true}}, {"name": "activation_31", "class_name": "Activation", "inbound_nodes": [[["add_9", 0, 0, {}]]], "config": {"name": "activation_31", "activation": "relu", "trainable": true}}, {"name": "conv4_3_1x1_reduce", "class_name": "Conv2D", "inbound_nodes": [[["activation_31", 0, 0, {}]]], "config": {"kernel_size": [1, 1], "kernel_initializer": {"class_name": "VarianceScaling", "config": {"distribution": "uniform", "seed": null, "mode": "fan_avg", "scale": 1.0}}, "use_bias": false, "bias_constraint": null, "trainable": true, "strides": [1, 1], "bias_regularizer": null, "bias_initializer": {"class_name": "Zeros", "config": {}}, "padding": "valid", "activity_regularizer": null, "name": "conv4_3_1x1_reduce", "filters": 256, "activation": "linear", "kernel_regularizer": null, "dilation_rate": [1, 1], "data_format": "channels_last", "kernel_constraint": null}}, {"name": "conv4_3_1x1_reduce_bn", "class_name": "BatchNormalization", "inbound_nodes": [[["conv4_3_1x1_reduce", 0, 0, {}]]], "config": {"momentum": 0.95, "moving_variance_initializer": {"class_name": "Ones", "config": {}}, "beta_regularizer": null, "axis": -1, "gamma_constraint": null, "beta_initializer": {"class_name": "Zeros", "config": {}}, "scale": true, "gamma_initializer": {"class_name": "Ones", "config": {}}, "gamma_regularizer": null, "moving_mean_initializer": {"class_name": "Zeros", "config": {}}, "name": "conv4_3_1x1_reduce_bn", "epsilon": 1e-05, "beta_constraint": null, "trainable": true, "center": true}}, {"name": "activation_32", "class_name": "Activation", "inbound_nodes": [[["conv4_3_1x1_reduce_bn", 0, 0, {}]]], "config": {"name": "activation_32", "activation": "relu", "trainable": true}}, {"name": "zero_padding2d_10", "class_name": "ZeroPadding2D", "inbound_nodes": [[["activation_32", 0, 0, {}]]], "config": {"name": "zero_padding2d_10", "data_format": "channels_last", "trainable": true, "padding": [[2, 2], [2, 2]]}}, {"name": "conv4_3_3x3", "class_name": "Conv2D", "inbound_nodes": [[["zero_padding2d_10", 0, 0, {}]]], "config": {"kernel_size": [3, 3], "kernel_initializer": {"class_name": "VarianceScaling", "config": {"distribution": "uniform", "seed": null, "mode": "fan_avg", "scale": 1.0}}, "use_bias": false, "bias_constraint": null, "trainable": true, "strides": [1, 1], "bias_regularizer": null, "bias_initializer": {"class_name": "Zeros", "config": {}}, "padding": "valid", "activity_regularizer": null, "name": "conv4_3_3x3", "filters": 256, "activation": "linear", "kernel_regularizer": null, "dilation_rate": [2, 2], "data_format": "channels_last", "kernel_constraint": null}}, {"name": "conv4_3_3x3_bn", "class_name": "BatchNormalization", "inbound_nodes": [[["conv4_3_3x3", 0, 0, {}]]], "config": {"momentum": 0.95, "moving_variance_initializer": {"class_name": "Ones", "config": {}}, "beta_regularizer": null, "axis": -1, "gamma_constraint": null, "beta_initializer": {"class_name": "Zeros", "config": {}}, "scale": true, "gamma_initializer": {"class_name": "Ones", "config": {}}, "gamma_regularizer": null, "moving_mean_initializer": {"class_name": "Zeros", "config": {}}, "name": "conv4_3_3x3_bn", "epsilon": 1e-05, "beta_constraint": null, "trainable": true, "center": true}}, {"name": "activation_33", "class_name": "Activation", "inbound_nodes": [[["conv4_3_3x3_bn", 0, 0, {}]]], "config": {"name": "activation_33", "activation": "relu", "trainable": true}}, {"name": "conv4_3_1x1_increase", "class_name": "Conv2D", "inbound_nodes": [[["activation_33", 0, 0, {}]]], "config": {"kernel_size": [1, 1], "kernel_initializer": {"class_name": "VarianceScaling", "config": {"distribution": "uniform", "seed": null, "mode": "fan_avg", "scale": 1.0}}, "use_bias": false, "bias_constraint": null, "trainable": true, "strides": [1, 1], "bias_regularizer": null, "bias_initializer": {"class_name": "Zeros", "config": {}}, "padding": "valid", "activity_regularizer": null, "name": "conv4_3_1x1_increase", "filters": 1024, "activation": "linear", "kernel_regularizer": null, "dilation_rate": [1, 1], "data_format": "channels_last", "kernel_constraint": null}}, {"name": "conv4_3_1x1_increase_bn", "class_name": "BatchNormalization", "inbound_nodes": [[["conv4_3_1x1_increase", 0, 0, {}]]], "config": {"momentum": 0.95, "moving_variance_initializer": {"class_name": "Ones", "config": {}}, "beta_regularizer": null, "axis": -1, "gamma_constraint": null, "beta_initializer": {"class_name": "Zeros", "config": {}}, "scale": true, "gamma_initializer": {"class_name": "Ones", "config": {}}, "gamma_regularizer": null, "moving_mean_initializer": {"class_name": "Zeros", "config": {}}, "name": "conv4_3_1x1_increase_bn", "epsilon": 1e-05, "beta_constraint": null, "trainable": true, "center": true}}, {"name": "add_10", "class_name": "Add", "inbound_nodes": [[["conv4_3_1x1_increase_bn", 0, 0, {}], ["activation_31", 0, 0, {}]]], "config": {"name": "add_10", "trainable": true}}, {"name": "activation_34", "class_name": "Activation", "inbound_nodes": [[["add_10", 0, 0, {}]]], "config": {"name": "activation_34", "activation": "relu", "trainable": true}}, {"name": "conv4_4_1x1_reduce", "class_name": "Conv2D", "inbound_nodes": [[["activation_34", 0, 0, {}]]], "config": {"kernel_size": [1, 1], "kernel_initializer": {"class_name": "VarianceScaling", "config": {"distribution": "uniform", "seed": null, "mode": "fan_avg", "scale": 1.0}}, "use_bias": false, "bias_constraint": null, "trainable": true, "strides": [1, 1], "bias_regularizer": null, "bias_initializer": {"class_name": "Zeros", "config": {}}, "padding": "valid", "activity_regularizer": null, "name": "conv4_4_1x1_reduce", "filters": 256, "activation": "linear", "kernel_regularizer": null, "dilation_rate": [1, 1], "data_format": "channels_last", "kernel_constraint": null}}, {"name": "conv4_4_1x1_reduce_bn", "class_name": "BatchNormalization", "inbound_nodes": [[["conv4_4_1x1_reduce", 0, 0, {}]]], "config": {"momentum": 0.95, "moving_variance_initializer": {"class_name": "Ones", "config": {}}, "beta_regularizer": null, "axis": -1, "gamma_constraint": null, "beta_initializer": {"class_name": "Zeros", "config": {}}, "scale": true, "gamma_initializer": {"class_name": "Ones", "config": {}}, "gamma_regularizer": null, "moving_mean_initializer": {"class_name": "Zeros", "config": {}}, "name": "conv4_4_1x1_reduce_bn", "epsilon": 1e-05, "beta_constraint": null, "trainable": true, "center": true}}, {"name": "activation_35", "class_name": "Activation", "inbound_nodes": [[["conv4_4_1x1_reduce_bn", 0, 0, {}]]], "config": {"name": "activation_35", "activation": "relu", "trainable": true}}, {"name": "zero_padding2d_11", "class_name": "ZeroPadding2D", "inbound_nodes": [[["activation_35", 0, 0, {}]]], "config": {"name": "zero_padding2d_11", "data_format": "channels_last", "trainable": true, "padding": [[2, 2], [2, 2]]}}, {"name": "conv4_4_3x3", "class_name": "Conv2D", "inbound_nodes": [[["zero_padding2d_11", 0, 0, {}]]], "config": {"kernel_size": [3, 3], "kernel_initializer": {"class_name": "VarianceScaling", "config": {"distribution": "uniform", "seed": null, "mode": "fan_avg", "scale": 1.0}}, "use_bias": false, "bias_constraint": null, "trainable": true, "strides": [1, 1], "bias_regularizer": null, "bias_initializer": {"class_name": "Zeros", "config": {}}, "padding": "valid", "activity_regularizer": null, "name": "conv4_4_3x3", "filters": 256, "activation": "linear", "kernel_regularizer": null, "dilation_rate": [2, 2], "data_format": "channels_last", "kernel_constraint": null}}, {"name": "conv4_4_3x3_bn", "class_name": "BatchNormalization", "inbound_nodes": [[["conv4_4_3x3", 0, 0, {}]]], "config": {"momentum": 0.95, "moving_variance_initializer": {"class_name": "Ones", "config": {}}, "beta_regularizer": null, "axis": -1, "gamma_constraint": null, "beta_initializer": {"class_name": "Zeros", "config": {}}, "scale": true, "gamma_initializer": {"class_name": "Ones", "config": {}}, "gamma_regularizer": null, "moving_mean_initializer": {"class_name": "Zeros", "config": {}}, "name": "conv4_4_3x3_bn", "epsilon": 1e-05, "beta_constraint": null, "trainable": true, "center": true}}, {"name": "activation_36", "class_name": "Activation", "inbound_nodes": [[["conv4_4_3x3_bn", 0, 0, {}]]], "config": {"name": "activation_36", "activation": "relu", "trainable": true}}, {"name": "conv4_4_1x1_increase", "class_name": "Conv2D", "inbound_nodes": [[["activation_36", 0, 0, {}]]], "config": {"kernel_size": [1, 1], "kernel_initializer": {"class_name": "VarianceScaling", "config": {"distribution": "uniform", "seed": null, "mode": "fan_avg", "scale": 1.0}}, "use_bias": false, "bias_constraint": null, "trainable": true, "strides": [1, 1], "bias_regularizer": null, "bias_initializer": {"class_name": "Zeros", "config": {}}, "padding": "valid", "activity_regularizer": null, "name": "conv4_4_1x1_increase", "filters": 1024, "activation": "linear", "kernel_regularizer": null, "dilation_rate": [1, 1], "data_format": "channels_last", "kernel_constraint": null}}, {"name": "conv4_4_1x1_increase_bn", "class_name": "BatchNormalization", "inbound_nodes": [[["conv4_4_1x1_increase", 0, 0, {}]]], "config": {"momentum": 0.95, "moving_variance_initializer": {"class_name": "Ones", "config": {}}, "beta_regularizer": null, "axis": -1, "gamma_constraint": null, "beta_initializer": {"class_name": "Zeros", "config": {}}, "scale": true, "gamma_initializer": {"class_name": "Ones", "config": {}}, "gamma_regularizer": null, "moving_mean_initializer": {"class_name": "Zeros", "config": {}}, "name": "conv4_4_1x1_increase_bn", "epsilon": 1e-05, "beta_constraint": null, "trainable": true, "center": true}}, {"name": "add_11", "class_name": "Add", "inbound_nodes": [[["conv4_4_1x1_increase_bn", 0, 0, {}], ["activation_34", 0, 0, {}]]], "config": {"name": "add_11", "trainable": true}}, {"name": "activation_37", "class_name": "Activation", "inbound_nodes": [[["add_11", 0, 0, {}]]], "config": {"name": "activation_37", "activation": "relu", "trainable": true}}, {"name": "conv4_5_1x1_reduce", "class_name": "Conv2D", "inbound_nodes": [[["activation_37", 0, 0, {}]]], "config": {"kernel_size": [1, 1], "kernel_initializer": {"class_name": "VarianceScaling", "config": {"distribution": "uniform", "seed": null, "mode": "fan_avg", "scale": 1.0}}, "use_bias": false, "bias_constraint": null, "trainable": true, "strides": [1, 1], "bias_regularizer": null, "bias_initializer": {"class_name": "Zeros", "config": {}}, "padding": "valid", "activity_regularizer": null, "name": "conv4_5_1x1_reduce", "filters": 256, "activation": "linear", "kernel_regularizer": null, "dilation_rate": [1, 1], "data_format": "channels_last", "kernel_constraint": null}}, {"name": "conv4_5_1x1_reduce_bn", "class_name": "BatchNormalization", "inbound_nodes": [[["conv4_5_1x1_reduce", 0, 0, {}]]], "config": {"momentum": 0.95, "moving_variance_initializer": {"class_name": "Ones", "config": {}}, "beta_regularizer": null, "axis": -1, "gamma_constraint": null, "beta_initializer": {"class_name": "Zeros", "config": {}}, "scale": true, "gamma_initializer": {"class_name": "Ones", "config": {}}, "gamma_regularizer": null, "moving_mean_initializer": {"class_name": "Zeros", "config": {}}, "name": "conv4_5_1x1_reduce_bn", "epsilon": 1e-05, "beta_constraint": null, "trainable": true, "center": true}}, {"name": "activation_38", "class_name": "Activation", "inbound_nodes": [[["conv4_5_1x1_reduce_bn", 0, 0, {}]]], "config": {"name": "activation_38", "activation": "relu", "trainable": true}}, {"name": "zero_padding2d_12", "class_name": "ZeroPadding2D", "inbound_nodes": [[["activation_38", 0, 0, {}]]], "config": {"name": "zero_padding2d_12", "data_format": "channels_last", "trainable": true, "padding": [[2, 2], [2, 2]]}}, {"name": "conv4_5_3x3", "class_name": "Conv2D", "inbound_nodes": [[["zero_padding2d_12", 0, 0, {}]]], "config": {"kernel_size": [3, 3], "kernel_initializer": {"class_name": "VarianceScaling", "config": {"distribution": "uniform", "seed": null, "mode": "fan_avg", "scale": 1.0}}, "use_bias": false, "bias_constraint": null, "trainable": true, "strides": [1, 1], "bias_regularizer": null, "bias_initializer": {"class_name": "Zeros", "config": {}}, "padding": "valid", "activity_regularizer": null, "name": "conv4_5_3x3", "filters": 256, "activation": "linear", "kernel_regularizer": null, "dilation_rate": [2, 2], "data_format": "channels_last", "kernel_constraint": null}}, {"name": "conv4_5_3x3_bn", "class_name": "BatchNormalization", "inbound_nodes": [[["conv4_5_3x3", 0, 0, {}]]], "config": {"momentum": 0.95, "moving_variance_initializer": {"class_name": "Ones", "config": {}}, "beta_regularizer": null, "axis": -1, "gamma_constraint": null, "beta_initializer": {"class_name": "Zeros", "config": {}}, "scale": true, "gamma_initializer": {"class_name": "Ones", "config": {}}, "gamma_regularizer": null, "moving_mean_initializer": {"class_name": "Zeros", "config": {}}, "name": "conv4_5_3x3_bn", "epsilon": 1e-05, "beta_constraint": null, "trainable": true, "center": true}}, {"name": "activation_39", "class_name": "Activation", "inbound_nodes": [[["conv4_5_3x3_bn", 0, 0, {}]]], "config": {"name": "activation_39", "activation": "relu", "trainable": true}}, {"name": "conv4_5_1x1_increase", "class_name": "Conv2D", "inbound_nodes": [[["activation_39", 0, 0, {}]]], "config": {"kernel_size": [1, 1], "kernel_initializer": {"class_name": "VarianceScaling", "config": {"distribution": "uniform", "seed": null, "mode": "fan_avg", "scale": 1.0}}, "use_bias": false, "bias_constraint": null, "trainable": true, "strides": [1, 1], "bias_regularizer": null, "bias_initializer": {"class_name": "Zeros", "config": {}}, "padding": "valid", "activity_regularizer": null, "name": "conv4_5_1x1_increase", "filters": 1024, "activation": "linear", "kernel_regularizer": null, "dilation_rate": [1, 1], "data_format": "channels_last", "kernel_constraint": null}}, {"name": "conv4_5_1x1_increase_bn", "class_name": "BatchNormalization", "inbound_nodes": [[["conv4_5_1x1_increase", 0, 0, {}]]], "config": {"momentum": 0.95, "moving_variance_initializer": {"class_name": "Ones", "config": {}}, "beta_regularizer": null, "axis": -1, "gamma_constraint": null, "beta_initializer": {"class_name": "Zeros", "config": {}}, "scale": true, "gamma_initializer": {"class_name": "Ones", "config": {}}, "gamma_regularizer": null, "moving_mean_initializer": {"class_name": "Zeros", "config": {}}, "name": "conv4_5_1x1_increase_bn", "epsilon": 1e-05, "beta_constraint": null, "trainable": true, "center": true}}, {"name": "add_12", "class_name": "Add", "inbound_nodes": [[["conv4_5_1x1_increase_bn", 0, 0, {}], ["activation_37", 0, 0, {}]]], "config": {"name": "add_12", "trainable": true}}, {"name": "activation_40", "class_name": "Activation", "inbound_nodes": [[["add_12", 0, 0, {}]]], "config": {"name": "activation_40", "activation": "relu", "trainable": true}}, {"name": "conv4_6_1x1_reduce", "class_name": "Conv2D", "inbound_nodes": [[["activation_40", 0, 0, {}]]], "config": {"kernel_size": [1, 1], "kernel_initializer": {"class_name": "VarianceScaling", "config": {"distribution": "uniform", "seed": null, "mode": "fan_avg", "scale": 1.0}}, "use_bias": false, "bias_constraint": null, "trainable": true, "strides": [1, 1], "bias_regularizer": null, "bias_initializer": {"class_name": "Zeros", "config": {}}, "padding": "valid", "activity_regularizer": null, "name": "conv4_6_1x1_reduce", "filters": 256, "activation": "linear", "kernel_regularizer": null, "dilation_rate": [1, 1], "data_format": "channels_last", "kernel_constraint": null}}, {"name": "conv4_6_1x1_reduce_bn", "class_name": "BatchNormalization", "inbound_nodes": [[["conv4_6_1x1_reduce", 0, 0, {}]]], "config": {"momentum": 0.95, "moving_variance_initializer": {"class_name": "Ones", "config": {}}, "beta_regularizer": null, "axis": -1, "gamma_constraint": null, "beta_initializer": {"class_name": "Zeros", "config": {}}, "scale": true, "gamma_initializer": {"class_name": "Ones", "config": {}}, "gamma_regularizer": null, "moving_mean_initializer": {"class_name": "Zeros", "config": {}}, "name": "conv4_6_1x1_reduce_bn", "epsilon": 1e-05, "beta_constraint": null, "trainable": true, "center": true}}, {"name": "activation_41", "class_name": "Activation", "inbound_nodes": [[["conv4_6_1x1_reduce_bn", 0, 0, {}]]], "config": {"name": "activation_41", "activation": "relu", "trainable": true}}, {"name": "zero_padding2d_13", "class_name": "ZeroPadding2D", "inbound_nodes": [[["activation_41", 0, 0, {}]]], "config": {"name": "zero_padding2d_13", "data_format": "channels_last", "trainable": true, "padding": [[2, 2], [2, 2]]}}, {"name": "conv4_6_3x3", "class_name": "Conv2D", "inbound_nodes": [[["zero_padding2d_13", 0, 0, {}]]], "config": {"kernel_size": [3, 3], "kernel_initializer": {"class_name": "VarianceScaling", "config": {"distribution": "uniform", "seed": null, "mode": "fan_avg", "scale": 1.0}}, "use_bias": false, "bias_constraint": null, "trainable": true, "strides": [1, 1], "bias_regularizer": null, "bias_initializer": {"class_name": "Zeros", "config": {}}, "padding": "valid", "activity_regularizer": null, "name": "conv4_6_3x3", "filters": 256, "activation": "linear", "kernel_regularizer": null, "dilation_rate": [2, 2], "data_format": "channels_last", "kernel_constraint": null}}, {"name": "conv4_6_3x3_bn", "class_name": "BatchNormalization", "inbound_nodes": [[["conv4_6_3x3", 0, 0, {}]]], "config": {"momentum": 0.95, "moving_variance_initializer": {"class_name": "Ones", "config": {}}, "beta_regularizer": null, "axis": -1, "gamma_constraint": null, "beta_initializer": {"class_name": "Zeros", "config": {}}, "scale": true, "gamma_initializer": {"class_name": "Ones", "config": {}}, "gamma_regularizer": null, "moving_mean_initializer": {"class_name": "Zeros", "config": {}}, "name": "conv4_6_3x3_bn", "epsilon": 1e-05, "beta_constraint": null, "trainable": true, "center": true}}, {"name": "activation_42", "class_name": "Activation", "inbound_nodes": [[["conv4_6_3x3_bn", 0, 0, {}]]], "config": {"name": "activation_42", "activation": "relu", "trainable": true}}, {"name": "conv4_6_1x1_increase", "class_name": "Conv2D", "inbound_nodes": [[["activation_42", 0, 0, {}]]], "config": {"kernel_size": [1, 1], "kernel_initializer": {"class_name": "VarianceScaling", "config": {"distribution": "uniform", "seed": null, "mode": "fan_avg", "scale": 1.0}}, "use_bias": false, "bias_constraint": null, "trainable": true, "strides": [1, 1], "bias_regularizer": null, "bias_initializer": {"class_name": "Zeros", "config": {}}, "padding": "valid", "activity_regularizer": null, "name": "conv4_6_1x1_increase", "filters": 1024, "activation": "linear", "kernel_regularizer": null, "dilation_rate": [1, 1], "data_format": "channels_last", "kernel_constraint": null}}, {"name": "conv4_6_1x1_increase_bn", "class_name": "BatchNormalization", "inbound_nodes": [[["conv4_6_1x1_increase", 0, 0, {}]]], "config": {"momentum": 0.95, "moving_variance_initializer": {"class_name": "Ones", "config": {}}, "beta_regularizer": null, "axis": -1, "gamma_constraint": null, "beta_initializer": {"class_name": "Zeros", "config": {}}, "scale": true, "gamma_initializer": {"class_name": "Ones", "config": {}}, "gamma_regularizer": null, "moving_mean_initializer": {"class_name": "Zeros", "config": {}}, "name": "conv4_6_1x1_increase_bn", "epsilon": 1e-05, "beta_constraint": null, "trainable": true, "center": true}}, {"name": "add_13", "class_name": "Add", "inbound_nodes": [[["conv4_6_1x1_increase_bn", 0, 0, {}], ["activation_40", 0, 0, {}]]], "config": {"name": "add_13", "trainable": true}}, {"name": "activation_43", "class_name": "Activation", "inbound_nodes": [[["add_13", 0, 0, {}]]], "config": {"name": "activation_43", "activation": "relu", "trainable": true}}, {"name": "conv5_1_1x1_reduce", "class_name": "Conv2D", "inbound_nodes": [[["activation_43", 0, 0, {}]]], "config": {"kernel_size": [1, 1], "kernel_initializer": {"class_name": "VarianceScaling", "config": {"distribution": "uniform", "seed": null, "mode": "fan_avg", "scale": 1.0}}, "use_bias": false, "bias_constraint": null, "trainable": true, "strides": [1, 1], "bias_regularizer": null, "bias_initializer": {"class_name": "Zeros", "config": {}}, "padding": "valid", "activity_regularizer": null, "name": "conv5_1_1x1_reduce", "filters": 512, "activation": "linear", "kernel_regularizer": null, "dilation_rate": [1, 1], "data_format": "channels_last", "kernel_constraint": null}}, {"name": "conv5_1_1x1_reduce_bn", "class_name": "BatchNormalization", "inbound_nodes": [[["conv5_1_1x1_reduce", 0, 0, {}]]], "config": {"momentum": 0.95, "moving_variance_initializer": {"class_name": "Ones", "config": {}}, "beta_regularizer": null, "axis": -1, "gamma_constraint": null, "beta_initializer": {"class_name": "Zeros", "config": {}}, "scale": true, "gamma_initializer": {"class_name": "Ones", "config": {}}, "gamma_regularizer": null, "moving_mean_initializer": {"class_name": "Zeros", "config": {}}, "name": "conv5_1_1x1_reduce_bn", "epsilon": 1e-05, "beta_constraint": null, "trainable": true, "center": true}}, {"name": "activation_44", "class_name": "Activation", "inbound_nodes": [[["conv5_1_1x1_reduce_bn", 0, 0, {}]]], "config": {"name": "activation_44", "activation": "relu", "trainable": true}}, {"name": "zero_padding2d_14", "class_name": "ZeroPadding2D", "inbound_nodes": [[["activation_44", 0, 0, {}]]], "config": {"name": "zero_padding2d_14", "data_format": "channels_last", "trainable": true, "padding": [[4, 4], [4, 4]]}}, {"name": "conv5_1_3x3", "class_name": "Conv2D", "inbound_nodes": [[["zero_padding2d_14", 0, 0, {}]]], "config": {"kernel_size": [3, 3], "kernel_initializer": {"class_name": "VarianceScaling", "config": {"distribution": "uniform", "seed": null, "mode": "fan_avg", "scale": 1.0}}, "use_bias": false, "bias_constraint": null, "trainable": true, "strides": [1, 1], "bias_regularizer": null, "bias_initializer": {"class_name": "Zeros", "config": {}}, "padding": "valid", "activity_regularizer": null, "name": "conv5_1_3x3", "filters": 512, "activation": "linear", "kernel_regularizer": null, "dilation_rate": [4, 4], "data_format": "channels_last", "kernel_constraint": null}}, {"name": "conv5_1_3x3_bn", "class_name": "BatchNormalization", "inbound_nodes": [[["conv5_1_3x3", 0, 0, {}]]], "config": {"momentum": 0.95, "moving_variance_initializer": {"class_name": "Ones", "config": {}}, "beta_regularizer": null, "axis": -1, "gamma_constraint": null, "beta_initializer": {"class_name": "Zeros", "config": {}}, "scale": true, "gamma_initializer": {"class_name": "Ones", "config": {}}, "gamma_regularizer": null, "moving_mean_initializer": {"class_name": "Zeros", "config": {}}, "name": "conv5_1_3x3_bn", "epsilon": 1e-05, "beta_constraint": null, "trainable": true, "center": true}}, {"name": "activation_45", "class_name": "Activation", "inbound_nodes": [[["conv5_1_3x3_bn", 0, 0, {}]]], "config": {"name": "activation_45", "activation": "relu", "trainable": true}}, {"name": "conv5_1_1x1_increase", "class_name": "Conv2D", "inbound_nodes": [[["activation_45", 0, 0, {}]]], "config": {"kernel_size": [1, 1], "kernel_initializer": {"class_name": "VarianceScaling", "config": {"distribution": "uniform", "seed": null, "mode": "fan_avg", "scale": 1.0}}, "use_bias": false, "bias_constraint": null, "trainable": true, "strides": [1, 1], "bias_regularizer": null, "bias_initializer": {"class_name": "Zeros", "config": {}}, "padding": "valid", "activity_regularizer": null, "name": "conv5_1_1x1_increase", "filters": 2048, "activation": "linear", "kernel_regularizer": null, "dilation_rate": [1, 1], "data_format": "channels_last", "kernel_constraint": null}}, {"name": "conv5_1_1x1_proj", "class_name": "Conv2D", "inbound_nodes": [[["activation_43", 0, 0, {}]]], "config": {"kernel_size": [1, 1], "kernel_initializer": {"class_name": "VarianceScaling", "config": {"distribution": "uniform", "seed": null, "mode": "fan_avg", "scale": 1.0}}, "use_bias": false, "bias_constraint": null, "trainable": true, "strides": [1, 1], "bias_regularizer": null, "bias_initializer": {"class_name": "Zeros", "config": {}}, "padding": "valid", "activity_regularizer": null, "name": "conv5_1_1x1_proj", "filters": 2048, "activation": "linear", "kernel_regularizer": null, "dilation_rate": [1, 1], "data_format": "channels_last", "kernel_constraint": null}}, {"name": "conv5_1_1x1_increase_bn", "class_name": "BatchNormalization", "inbound_nodes": [[["conv5_1_1x1_increase", 0, 0, {}]]], "config": {"momentum": 0.95, "moving_variance_initializer": {"class_name": "Ones", "config": {}}, "beta_regularizer": null, "axis": -1, "gamma_constraint": null, "beta_initializer": {"class_name": "Zeros", "config": {}}, "scale": true, "gamma_initializer": {"class_name": "Ones", "config": {}}, "gamma_regularizer": null, "moving_mean_initializer": {"class_name": "Zeros", "config": {}}, "name": "conv5_1_1x1_increase_bn", "epsilon": 1e-05, "beta_constraint": null, "trainable": true, "center": true}}, {"name": "conv5_1_1x1_proj_bn", "class_name": "BatchNormalization", "inbound_nodes": [[["conv5_1_1x1_proj", 0, 0, {}]]], "config": {"momentum": 0.95, "moving_variance_initializer": {"class_name": "Ones", "config": {}}, "beta_regularizer": null, "axis": -1, "gamma_constraint": null, "beta_initializer": {"class_name": "Zeros", "config": {}}, "scale": true, "gamma_initializer": {"class_name": "Ones", "config": {}}, "gamma_regularizer": null, "moving_mean_initializer": {"class_name": "Zeros", "config": {}}, "name": "conv5_1_1x1_proj_bn", "epsilon": 1e-05, "beta_constraint": null, "trainable": true, "center": true}}, {"name": "add_14", "class_name": "Add", "inbound_nodes": [[["conv5_1_1x1_increase_bn", 0, 0, {}], ["conv5_1_1x1_proj_bn", 0, 0, {}]]], "config": {"name": "add_14", "trainable": true}}, {"name": "activation_46", "class_name": "Activation", "inbound_nodes": [[["add_14", 0, 0, {}]]], "config": {"name": "activation_46", "activation": "relu", "trainable": true}}, {"name": "conv5_2_1x1_reduce", "class_name": "Conv2D", "inbound_nodes": [[["activation_46", 0, 0, {}]]], "config": {"kernel_size": [1, 1], "kernel_initializer": {"class_name": "VarianceScaling", "config": {"distribution": "uniform", "seed": null, "mode": "fan_avg", "scale": 1.0}}, "use_bias": false, "bias_constraint": null, "trainable": true, "strides": [1, 1], "bias_regularizer": null, "bias_initializer": {"class_name": "Zeros", "config": {}}, "padding": "valid", "activity_regularizer": null, "name": "conv5_2_1x1_reduce", "filters": 512, "activation": "linear", "kernel_regularizer": null, "dilation_rate": [1, 1], "data_format": "channels_last", "kernel_constraint": null}}, {"name": "conv5_2_1x1_reduce_bn", "class_name": "BatchNormalization", "inbound_nodes": [[["conv5_2_1x1_reduce", 0, 0, {}]]], "config": {"momentum": 0.95, "moving_variance_initializer": {"class_name": "Ones", "config": {}}, "beta_regularizer": null, "axis": -1, "gamma_constraint": null, "beta_initializer": {"class_name": "Zeros", "config": {}}, "scale": true, "gamma_initializer": {"class_name": "Ones", "config": {}}, "gamma_regularizer": null, "moving_mean_initializer": {"class_name": "Zeros", "config": {}}, "name": "conv5_2_1x1_reduce_bn", "epsilon": 1e-05, "beta_constraint": null, "trainable": true, "center": true}}, {"name": "activation_47", "class_name": "Activation", "inbound_nodes": [[["conv5_2_1x1_reduce_bn", 0, 0, {}]]], "config": {"name": "activation_47", "activation": "relu", "trainable": true}}, {"name": "zero_padding2d_15", "class_name": "ZeroPadding2D", "inbound_nodes": [[["activation_47", 0, 0, {}]]], "config": {"name": "zero_padding2d_15", "data_format": "channels_last", "trainable": true, "padding": [[4, 4], [4, 4]]}}, {"name": "conv5_2_3x3", "class_name": "Conv2D", "inbound_nodes": [[["zero_padding2d_15", 0, 0, {}]]], "config": {"kernel_size": [3, 3], "kernel_initializer": {"class_name": "VarianceScaling", "config": {"distribution": "uniform", "seed": null, "mode": "fan_avg", "scale": 1.0}}, "use_bias": false, "bias_constraint": null, "trainable": true, "strides": [1, 1], "bias_regularizer": null, "bias_initializer": {"class_name": "Zeros", "config": {}}, "padding": "valid", "activity_regularizer": null, "name": "conv5_2_3x3", "filters": 512, "activation": "linear", "kernel_regularizer": null, "dilation_rate": [4, 4], "data_format": "channels_last", "kernel_constraint": null}}, {"name": "conv5_2_3x3_bn", "class_name": "BatchNormalization", "inbound_nodes": [[["conv5_2_3x3", 0, 0, {}]]], "config": {"momentum": 0.95, "moving_variance_initializer": {"class_name": "Ones", "config": {}}, "beta_regularizer": null, "axis": -1, "gamma_constraint": null, "beta_initializer": {"class_name": "Zeros", "config": {}}, "scale": true, "gamma_initializer": {"class_name": "Ones", "config": {}}, "gamma_regularizer": null, "moving_mean_initializer": {"class_name": "Zeros", "config": {}}, "name": "conv5_2_3x3_bn", "epsilon": 1e-05, "beta_constraint": null, "trainable": true, "center": true}}, {"name": "activation_48", "class_name": "Activation", "inbound_nodes": [[["conv5_2_3x3_bn", 0, 0, {}]]], "config": {"name": "activation_48", "activation": "relu", "trainable": true}}, {"name": "conv5_2_1x1_increase", "class_name": "Conv2D", "inbound_nodes": [[["activation_48", 0, 0, {}]]], "config": {"kernel_size": [1, 1], "kernel_initializer": {"class_name": "VarianceScaling", "config": {"distribution": "uniform", "seed": null, "mode": "fan_avg", "scale": 1.0}}, "use_bias": false, "bias_constraint": null, "trainable": true, "strides": [1, 1], "bias_regularizer": null, "bias_initializer": {"class_name": "Zeros", "config": {}}, "padding": "valid", "activity_regularizer": null, "name": "conv5_2_1x1_increase", "filters": 2048, "activation": "linear", "kernel_regularizer": null, "dilation_rate": [1, 1], "data_format": "channels_last", "kernel_constraint": null}}, {"name": "conv5_2_1x1_increase_bn", "class_name": "BatchNormalization", "inbound_nodes": [[["conv5_2_1x1_increase", 0, 0, {}]]], "config": {"momentum": 0.95, "moving_variance_initializer": {"class_name": "Ones", "config": {}}, "beta_regularizer": null, "axis": -1, "gamma_constraint": null, "beta_initializer": {"class_name": "Zeros", "config": {}}, "scale": true, "gamma_initializer": {"class_name": "Ones", "config": {}}, "gamma_regularizer": null, "moving_mean_initializer": {"class_name": "Zeros", "config": {}}, "name": "conv5_2_1x1_increase_bn", "epsilon": 1e-05, "beta_constraint": null, "trainable": true, "center": true}}, {"name": "add_15", "class_name": "Add", "inbound_nodes": [[["conv5_2_1x1_increase_bn", 0, 0, {}], ["activation_46", 0, 0, {}]]], "config": {"name": "add_15", "trainable": true}}, {"name": "activation_49", "class_name": "Activation", "inbound_nodes": [[["add_15", 0, 0, {}]]], "config": {"name": "activation_49", "activation": "relu", "trainable": true}}, {"name": "conv5_3_1x1_reduce", "class_name": "Conv2D", "inbound_nodes": [[["activation_49", 0, 0, {}]]], "config": {"kernel_size": [1, 1], "kernel_initializer": {"class_name": "VarianceScaling", "config": {"distribution": "uniform", "seed": null, "mode": "fan_avg", "scale": 1.0}}, "use_bias": false, "bias_constraint": null, "trainable": true, "strides": [1, 1], "bias_regularizer": null, "bias_initializer": {"class_name": "Zeros", "config": {}}, "padding": "valid", "activity_regularizer": null, "name": "conv5_3_1x1_reduce", "filters": 512, "activation": "linear", "kernel_regularizer": null, "dilation_rate": [1, 1], "data_format": "channels_last", "kernel_constraint": null}}, {"name": "conv5_3_1x1_reduce_bn", "class_name": "BatchNormalization", "inbound_nodes": [[["conv5_3_1x1_reduce", 0, 0, {}]]], "config": {"momentum": 0.95, "moving_variance_initializer": {"class_name": "Ones", "config": {}}, "beta_regularizer": null, "axis": -1, "gamma_constraint": null, "beta_initializer": {"class_name": "Zeros", "config": {}}, "scale": true, "gamma_initializer": {"class_name": "Ones", "config": {}}, "gamma_regularizer": null, "moving_mean_initializer": {"class_name": "Zeros", "config": {}}, "name": "conv5_3_1x1_reduce_bn", "epsilon": 1e-05, "beta_constraint": null, "trainable": true, "center": true}}, {"name": "activation_50", "class_name": "Activation", "inbound_nodes": [[["conv5_3_1x1_reduce_bn", 0, 0, {}]]], "config": {"name": "activation_50", "activation": "relu", "trainable": true}}, {"name": "zero_padding2d_16", "class_name": "ZeroPadding2D", "inbound_nodes": [[["activation_50", 0, 0, {}]]], "config": {"name": "zero_padding2d_16", "data_format": "channels_last", "trainable": true, "padding": [[4, 4], [4, 4]]}}, {"name": "conv5_3_3x3", "class_name": "Conv2D", "inbound_nodes": [[["zero_padding2d_16", 0, 0, {}]]], "config": {"kernel_size": [3, 3], "kernel_initializer": {"class_name": "VarianceScaling", "config": {"distribution": "uniform", "seed": null, "mode": "fan_avg", "scale": 1.0}}, "use_bias": false, "bias_constraint": null, "trainable": true, "strides": [1, 1], "bias_regularizer": null, "bias_initializer": {"class_name": "Zeros", "config": {}}, "padding": "valid", "activity_regularizer": null, "name": "conv5_3_3x3", "filters": 512, "activation": "linear", "kernel_regularizer": null, "dilation_rate": [4, 4], "data_format": "channels_last", "kernel_constraint": null}}, {"name": "conv5_3_3x3_bn", "class_name": "BatchNormalization", "inbound_nodes": [[["conv5_3_3x3", 0, 0, {}]]], "config": {"momentum": 0.95, "moving_variance_initializer": {"class_name": "Ones", "config": {}}, "beta_regularizer": null, "axis": -1, "gamma_constraint": null, "beta_initializer": {"class_name": "Zeros", "config": {}}, "scale": true, "gamma_initializer": {"class_name": "Ones", "config": {}}, "gamma_regularizer": null, "moving_mean_initializer": {"class_name": "Zeros", "config": {}}, "name": "conv5_3_3x3_bn", "epsilon": 1e-05, "beta_constraint": null, "trainable": true, "center": true}}, {"name": "activation_51", "class_name": "Activation", "inbound_nodes": [[["conv5_3_3x3_bn", 0, 0, {}]]], "config": {"name": "activation_51", "activation": "relu", "trainable": true}}, {"name": "conv5_3_1x1_increase", "class_name": "Conv2D", "inbound_nodes": [[["activation_51", 0, 0, {}]]], "config": {"kernel_size": [1, 1], "kernel_initializer": {"class_name": "VarianceScaling", "config": {"distribution": "uniform", "seed": null, "mode": "fan_avg", "scale": 1.0}}, "use_bias": false, "bias_constraint": null, "trainable": true, "strides": [1, 1], "bias_regularizer": null, "bias_initializer": {"class_name": "Zeros", "config": {}}, "padding": "valid", "activity_regularizer": null, "name": "conv5_3_1x1_increase", "filters": 2048, "activation": "linear", "kernel_regularizer": null, "dilation_rate": [1, 1], "data_format": "channels_last", "kernel_constraint": null}}, {"name": "conv5_3_1x1_increase_bn", "class_name": "BatchNormalization", "inbound_nodes": [[["conv5_3_1x1_increase", 0, 0, {}]]], "config": {"momentum": 0.95, "moving_variance_initializer": {"class_name": "Ones", "config": {}}, "beta_regularizer": null, "axis": -1, "gamma_constraint": null, "beta_initializer": {"class_name": "Zeros", "config": {}}, "scale": true, "gamma_initializer": {"class_name": "Ones", "config": {}}, "gamma_regularizer": null, "moving_mean_initializer": {"class_name": "Zeros", "config": {}}, "name": "conv5_3_1x1_increase_bn", "epsilon": 1e-05, "beta_constraint": null, "trainable": true, "center": true}}, {"name": "add_16", "class_name": "Add", "inbound_nodes": [[["conv5_3_1x1_increase_bn", 0, 0, {}], ["activation_49", 0, 0, {}]]], "config": {"name": "add_16", "trainable": true}}, {"name": "activation_52", "class_name": "Activation", "inbound_nodes": [[["add_16", 0, 0, {}]]], "config": {"name": "activation_52", "activation": "relu", "trainable": true}}, {"name": "average_pooling2d_4", "class_name": "AveragePooling2D", "inbound_nodes": [[["activation_52", 0, 0, {}]]], "config": {"name": "average_pooling2d_4", "strides": [10, 10], "padding": "valid", "data_format": "channels_last", "trainable": true, "pool_size": [10, 10]}}, {"name": "average_pooling2d_3", "class_name": "AveragePooling2D", "inbound_nodes": [[["activation_52", 0, 0, {}]]], "config": {"name": "average_pooling2d_3", "strides": [20, 20], "padding": "valid", "data_format": "channels_last", "trainable": true, "pool_size": [20, 20]}}, {"name": "average_pooling2d_2", "class_name": "AveragePooling2D", "inbound_nodes": [[["activation_52", 0, 0, {}]]], "config": {"name": "average_pooling2d_2", "strides": [30, 30], "padding": "valid", "data_format": "channels_last", "trainable": true, "pool_size": [30, 30]}}, {"name": "average_pooling2d_1", "class_name": "AveragePooling2D", "inbound_nodes": [[["activation_52", 0, 0, {}]]], "config": {"name": "average_pooling2d_1", "strides": [60, 60], "padding": "valid", "data_format": "channels_last", "trainable": true, "pool_size": [60, 60]}}, {"name": "conv5_3_pool6_conv", "class_name": "Conv2D", "inbound_nodes": [[["average_pooling2d_4", 0, 0, {}]]], "config": {"kernel_size": [1, 1], "kernel_initializer": {"class_name": "VarianceScaling", "config": {"distribution": "uniform", "seed": null, "mode": "fan_avg", "scale": 1.0}}, "use_bias": false, "bias_constraint": null, "trainable": true, "strides": [1, 1], "bias_regularizer": null, "bias_initializer": {"class_name": "Zeros", "config": {}}, "padding": "valid", "activity_regularizer": null, "name": "conv5_3_pool6_conv", "filters": 512, "activation": "linear", "kernel_regularizer": null, "dilation_rate": [1, 1], "data_format": "channels_last", "kernel_constraint": null}}, {"name": "conv5_3_pool3_conv", "class_name": "Conv2D", "inbound_nodes": [[["average_pooling2d_3", 0, 0, {}]]], "config": {"kernel_size": [1, 1], "kernel_initializer": {"class_name": "VarianceScaling", "config": {"distribution": "uniform", "seed": null, "mode": "fan_avg", "scale": 1.0}}, "use_bias": false, "bias_constraint": null, "trainable": true, "strides": [1, 1], "bias_regularizer": null, "bias_initializer": {"class_name": "Zeros", "config": {}}, "padding": "valid", "activity_regularizer": null, "name": "conv5_3_pool3_conv", "filters": 512, "activation": "linear", "kernel_regularizer": null, "dilation_rate": [1, 1], "data_format": "channels_last", "kernel_constraint": null}}, {"name": "conv5_3_pool2_conv", "class_name": "Conv2D", "inbound_nodes": [[["average_pooling2d_2", 0, 0, {}]]], "config": {"kernel_size": [1, 1], "kernel_initializer": {"class_name": "VarianceScaling", "config": {"distribution": "uniform", "seed": null, "mode": "fan_avg", "scale": 1.0}}, "use_bias": false, "bias_constraint": null, "trainable": true, "strides": [1, 1], "bias_regularizer": null, "bias_initializer": {"class_name": "Zeros", "config": {}}, "padding": "valid", "activity_regularizer": null, "name": "conv5_3_pool2_conv", "filters": 512, "activation": "linear", "kernel_regularizer": null, "dilation_rate": [1, 1], "data_format": "channels_last", "kernel_constraint": null}}, {"name": "conv5_3_pool1_conv", "class_name": "Conv2D", "inbound_nodes": [[["average_pooling2d_1", 0, 0, {}]]], "config": {"kernel_size": [1, 1], "kernel_initializer": {"class_name": "VarianceScaling", "config": {"distribution": "uniform", "seed": null, "mode": "fan_avg", "scale": 1.0}}, "use_bias": false, "bias_constraint": null, "trainable": true, "strides": [1, 1], "bias_regularizer": null, "bias_initializer": {"class_name": "Zeros", "config": {}}, "padding": "valid", "activity_regularizer": null, "name": "conv5_3_pool1_conv", "filters": 512, "activation": "linear", "kernel_regularizer": null, "dilation_rate": [1, 1], "data_format": "channels_last", "kernel_constraint": null}}, {"name": "conv5_3_pool6_conv_bn", "class_name": "BatchNormalization", "inbound_nodes": [[["conv5_3_pool6_conv", 0, 0, {}]]], "config": {"momentum": 0.95, "moving_variance_initializer": {"class_name": "Ones", "config": {}}, "beta_regularizer": null, "axis": -1, "gamma_constraint": null, "beta_initializer": {"class_name": "Zeros", "config": {}}, "scale": true, "gamma_initializer": {"class_name": "Ones", "config": {}}, "gamma_regularizer": null, "moving_mean_initializer": {"class_name": "Zeros", "config": {}}, "name": "conv5_3_pool6_conv_bn", "epsilon": 1e-05, "beta_constraint": null, "trainable": true, "center": true}}, {"name": "conv5_3_pool3_conv_bn", "class_name": "BatchNormalization", "inbound_nodes": [[["conv5_3_pool3_conv", 0, 0, {}]]], "config": {"momentum": 0.95, "moving_variance_initializer": {"class_name": "Ones", "config": {}}, "beta_regularizer": null, "axis": -1, "gamma_constraint": null, "beta_initializer": {"class_name": "Zeros", "config": {}}, "scale": true, "gamma_initializer": {"class_name": "Ones", "config": {}}, "gamma_regularizer": null, "moving_mean_initializer": {"class_name": "Zeros", "config": {}}, "name": "conv5_3_pool3_conv_bn", "epsilon": 1e-05, "beta_constraint": null, "trainable": true, "center": true}}, {"name": "conv5_3_pool2_conv_bn", "class_name": "BatchNormalization", "inbound_nodes": [[["conv5_3_pool2_conv", 0, 0, {}]]], "config": {"momentum": 0.95, "moving_variance_initializer": {"class_name": "Ones", "config": {}}, "beta_regularizer": null, "axis": -1, "gamma_constraint": null, "beta_initializer": {"class_name": "Zeros", "config": {}}, "scale": true, "gamma_initializer": {"class_name": "Ones", "config": {}}, "gamma_regularizer": null, "moving_mean_initializer": {"class_name": "Zeros", "config": {}}, "name": "conv5_3_pool2_conv_bn", "epsilon": 1e-05, "beta_constraint": null, "trainable": true, "center": true}}, {"name": "conv5_3_pool1_conv_bn", "class_name": "BatchNormalization", "inbound_nodes": [[["conv5_3_pool1_conv", 0, 0, {}]]], "config": {"momentum": 0.95, "moving_variance_initializer": {"class_name": "Ones", "config": {}}, "beta_regularizer": null, "axis": -1, "gamma_constraint": null, "beta_initializer": {"class_name": "Zeros", "config": {}}, "scale": true, "gamma_initializer": {"class_name": "Ones", "config": {}}, "gamma_regularizer": null, "moving_mean_initializer": {"class_name": "Zeros", "config": {}}, "name": "conv5_3_pool1_conv_bn", "epsilon": 1e-05, "beta_constraint": null, "trainable": true, "center": true}}, {"name": "activation_56", "class_name": "Activation", "inbound_nodes": [[["conv5_3_pool6_conv_bn", 0, 0, {}]]], "config": {"name": "activation_56", "activation": "relu", "trainable": true}}, {"name": "activation_55", "class_name": "Activation", "inbound_nodes": [[["conv5_3_pool3_conv_bn", 0, 0, {}]]], "config": {"name": "activation_55", "activation": "relu", "trainable": true}}, {"name": "activation_54", "class_name": "Activation", "inbound_nodes": [[["conv5_3_pool2_conv_bn", 0, 0, {}]]], "config": {"name": "activation_54", "activation": "relu", "trainable": true}}, {"name": "activation_53", "class_name": "Activation", "inbound_nodes": [[["conv5_3_pool1_conv_bn", 0, 0, {}]]], "config": {"name": "activation_53", "activation": "relu", "trainable": true}}, {"name": "lambda_4", "class_name": "Lambda", "inbound_nodes": [[["activation_56", 0, 0, {}]]], "config": {"name": "lambda_4", "output_shape": null, "function_type": "lambda", "arguments": {"shape": [80, 60]}, "output_shape_type": "raw", "trainable": true, "function": ["\u00e3\u0002\u0000\u0000\u0000\u0000\u0000\u0000\u0000\u0006\u0000\u0000\u0000\u0005\u0000\u0000\u0000C\u0000\u0000\u0000sA\u0000\u0000\u0000d\u0001\u0000d\u0002\u0000l\u0000\u0000m\u0001\u0000}\u0002\u0000\u0001|\u0001\u0000\\\u0002\u0000}\u0003\u0000}\u0004\u0000|\u0002\u0000j\u0002\u0000j\u0003\u0000|\u0000\u0000|\u0003\u0000|\u0004\u0000g\u0002\u0000d\u0003\u0000d\u0004\u0000\u0083\u0002\u0001}\u0005\u0000|\u0005\u0000S)\u0005N\u00e9\u0000\u0000\u0000\u0000)\u0001\u00da\u0002tf\u00da\ralign_cornersT)\u0004Z\rkeras.backendr\u0002\u0000\u0000\u0000\u00da\u0005image\u00da\rresize_images)\u0006\u00da\u0001x\u00da\u0005shapeZ\u0003ktfZ\nnew_heightZ\tnew_width\u00da\u0007resized\u00a9\u0000r\t\u0000\u0000\u0000\u00fa9/home/jordi/Documents/RGBD_Segmentation/layers_builder.py\u00da\u0006Interp\u0011\u0000\u0000\u0000s\n\u0000\u0000\u0000\u0000\u0001\u0010\u0001\f\u0001\u0018\u0001\t\u0001", null, null]}}, {"name": "lambda_3", "class_name": "Lambda", "inbound_nodes": [[["activation_55", 0, 0, {}]]], "config": {"name": "lambda_3", "output_shape": null, "function_type": "lambda", "arguments": {"shape": [80, 60]}, "output_shape_type": "raw", "trainable": true, "function": ["\u00e3\u0002\u0000\u0000\u0000\u0000\u0000\u0000\u0000\u0006\u0000\u0000\u0000\u0005\u0000\u0000\u0000C\u0000\u0000\u0000sA\u0000\u0000\u0000d\u0001\u0000d\u0002\u0000l\u0000\u0000m\u0001\u0000}\u0002\u0000\u0001|\u0001\u0000\\\u0002\u0000}\u0003\u0000}\u0004\u0000|\u0002\u0000j\u0002\u0000j\u0003\u0000|\u0000\u0000|\u0003\u0000|\u0004\u0000g\u0002\u0000d\u0003\u0000d\u0004\u0000\u0083\u0002\u0001}\u0005\u0000|\u0005\u0000S)\u0005N\u00e9\u0000\u0000\u0000\u0000)\u0001\u00da\u0002tf\u00da\ralign_cornersT)\u0004Z\rkeras.backendr\u0002\u0000\u0000\u0000\u00da\u0005image\u00da\rresize_images)\u0006\u00da\u0001x\u00da\u0005shapeZ\u0003ktfZ\nnew_heightZ\tnew_width\u00da\u0007resized\u00a9\u0000r\t\u0000\u0000\u0000\u00fa9/home/jordi/Documents/RGBD_Segmentation/layers_builder.py\u00da\u0006Interp\u0011\u0000\u0000\u0000s\n\u0000\u0000\u0000\u0000\u0001\u0010\u0001\f\u0001\u0018\u0001\t\u0001", null, null]}}, {"name": "lambda_2", "class_name": "Lambda", "inbound_nodes": [[["activation_54", 0, 0, {}]]], "config": {"name": "lambda_2", "output_shape": null, "function_type": "lambda", "arguments": {"shape": [80, 60]}, "output_shape_type": "raw", "trainable": true, "function": ["\u00e3\u0002\u0000\u0000\u0000\u0000\u0000\u0000\u0000\u0006\u0000\u0000\u0000\u0005\u0000\u0000\u0000C\u0000\u0000\u0000sA\u0000\u0000\u0000d\u0001\u0000d\u0002\u0000l\u0000\u0000m\u0001\u0000}\u0002\u0000\u0001|\u0001\u0000\\\u0002\u0000}\u0003\u0000}\u0004\u0000|\u0002\u0000j\u0002\u0000j\u0003\u0000|\u0000\u0000|\u0003\u0000|\u0004\u0000g\u0002\u0000d\u0003\u0000d\u0004\u0000\u0083\u0002\u0001}\u0005\u0000|\u0005\u0000S)\u0005N\u00e9\u0000\u0000\u0000\u0000)\u0001\u00da\u0002tf\u00da\ralign_cornersT)\u0004Z\rkeras.backendr\u0002\u0000\u0000\u0000\u00da\u0005image\u00da\rresize_images)\u0006\u00da\u0001x\u00da\u0005shapeZ\u0003ktfZ\nnew_heightZ\tnew_width\u00da\u0007resized\u00a9\u0000r\t\u0000\u0000\u0000\u00fa9/home/jordi/Documents/RGBD_Segmentation/layers_builder.py\u00da\u0006Interp\u0011\u0000\u0000\u0000s\n\u0000\u0000\u0000\u0000\u0001\u0010\u0001\f\u0001\u0018\u0001\t\u0001", null, null]}}, {"name": "lambda_1", "class_name": "Lambda", "inbound_nodes": [[["activation_53", 0, 0, {}]]], "config": {"name": "lambda_1", "output_shape": null, "function_type": "lambda", "arguments": {"shape": [80, 60]}, "output_shape_type": "raw", "trainable": true, "function": ["\u00e3\u0002\u0000\u0000\u0000\u0000\u0000\u0000\u0000\u0006\u0000\u0000\u0000\u0005\u0000\u0000\u0000C\u0000\u0000\u0000sA\u0000\u0000\u0000d\u0001\u0000d\u0002\u0000l\u0000\u0000m\u0001\u0000}\u0002\u0000\u0001|\u0001\u0000\\\u0002\u0000}\u0003\u0000}\u0004\u0000|\u0002\u0000j\u0002\u0000j\u0003\u0000|\u0000\u0000|\u0003\u0000|\u0004\u0000g\u0002\u0000d\u0003\u0000d\u0004\u0000\u0083\u0002\u0001}\u0005\u0000|\u0005\u0000S)\u0005N\u00e9\u0000\u0000\u0000\u0000)\u0001\u00da\u0002tf\u00da\ralign_cornersT)\u0004Z\rkeras.backendr\u0002\u0000\u0000\u0000\u00da\u0005image\u00da\rresize_images)\u0006\u00da\u0001x\u00da\u0005shapeZ\u0003ktfZ\nnew_heightZ\tnew_width\u00da\u0007resized\u00a9\u0000r\t\u0000\u0000\u0000\u00fa9/home/jordi/Documents/RGBD_Segmentation/layers_builder.py\u00da\u0006Interp\u0011\u0000\u0000\u0000s\n\u0000\u0000\u0000\u0000\u0001\u0010\u0001\f\u0001\u0018\u0001\t\u0001", null, null]}}, {"name": "concatenate_1", "class_name": "Concatenate", "inbound_nodes": [[["activation_52", 0, 0, {}], ["lambda_4", 0, 0, {}], ["lambda_3", 0, 0, {}], ["lambda_2", 0, 0, {}], ["lambda_1", 0, 0, {}]]], "config": {"name": "concatenate_1", "trainable": true, "axis": -1}}, {"name": "conv5_4", "class_name": "Conv2D", "inbound_nodes": [[["concatenate_1", 0, 0, {}]]], "config": {"kernel_size": [3, 3], "kernel_initializer": {"class_name": "VarianceScaling", "config": {"distribution": "uniform", "seed": null, "mode": "fan_avg", "scale": 1.0}}, "use_bias": false, "bias_constraint": null, "trainable": true, "strides": [1, 1], "bias_regularizer": null, "bias_initializer": {"class_name": "Zeros", "config": {}}, "padding": "same", "activity_regularizer": null, "name": "conv5_4", "filters": 512, "activation": "linear", "kernel_regularizer": null, "dilation_rate": [1, 1], "data_format": "channels_last", "kernel_constraint": null}}, {"name": "conv5_4_bn", "class_name": "BatchNormalization", "inbound_nodes": [[["conv5_4", 0, 0, {}]]], "config": {"momentum": 0.95, "moving_variance_initializer": {"class_name": "Ones", "config": {}}, "beta_regularizer": null, "axis": -1, "gamma_constraint": null, "beta_initializer": {"class_name": "Zeros", "config": {}}, "scale": true, "gamma_initializer": {"class_name": "Ones", "config": {}}, "gamma_regularizer": null, "moving_mean_initializer": {"class_name": "Zeros", "config": {}}, "name": "conv5_4_bn", "epsilon": 1e-05, "beta_constraint": null, "trainable": true, "center": true}}, {"name": "activation_57", "class_name": "Activation", "inbound_nodes": [[["conv5_4_bn", 0, 0, {}]]], "config": {"name": "activation_57", "activation": "relu", "trainable": true}}, {"name": "dropout_1", "class_name": "Dropout", "inbound_nodes": [[["activation_57", 0, 0, {}]]], "config": {"name": "dropout_1", "rate": 0.1, "trainable": true}}, {"name": "conv6", "class_name": "Conv2D", "inbound_nodes": [[["dropout_1", 0, 0, {}]]], "config": {"kernel_size": [1, 1], "kernel_initializer": {"class_name": "VarianceScaling", "config": {"distribution": "uniform", "seed": null, "mode": "fan_avg", "scale": 1.0}}, "use_bias": true, "bias_constraint": null, "trainable": true, "strides": [1, 1], "bias_regularizer": null, "bias_initializer": {"class_name": "Zeros", "config": {}}, "padding": "valid", "activity_regularizer": null, "name": "conv6", "filters": 150, "activation": "linear", "kernel_regularizer": null, "dilation_rate": [1, 1], "data_format": "channels_last", "kernel_constraint": null}}, {"name": "lambda_5", "class_name": "Lambda", "inbound_nodes": [[["conv6", 0, 0, {}]]], "config": {"name": "lambda_5", "output_shape": null, "function_type": "lambda", "arguments": {"shape": [640, 480]}, "output_shape_type": "raw", "trainable": true, "function": ["\u00e3\u0002\u0000\u0000\u0000\u0000\u0000\u0000\u0000\u0006\u0000\u0000\u0000\u0005\u0000\u0000\u0000C\u0000\u0000\u0000sA\u0000\u0000\u0000d\u0001\u0000d\u0002\u0000l\u0000\u0000m\u0001\u0000}\u0002\u0000\u0001|\u0001\u0000\\\u0002\u0000}\u0003\u0000}\u0004\u0000|\u0002\u0000j\u0002\u0000j\u0003\u0000|\u0000\u0000|\u0003\u0000|\u0004\u0000g\u0002\u0000d\u0003\u0000d\u0004\u0000\u0083\u0002\u0001}\u0005\u0000|\u0005\u0000S)\u0005N\u00e9\u0000\u0000\u0000\u0000)\u0001\u00da\u0002tf\u00da\ralign_cornersT)\u0004Z\rkeras.backendr\u0002\u0000\u0000\u0000\u00da\u0005image\u00da\rresize_images)\u0006\u00da\u0001x\u00da\u0005shapeZ\u0003ktfZ\nnew_heightZ\tnew_width\u00da\u0007resized\u00a9\u0000r\t\u0000\u0000\u0000\u00fa9/home/jordi/Documents/RGBD_Segmentation/layers_builder.py\u00da\u0006Interp\u0011\u0000\u0000\u0000s\n\u0000\u0000\u0000\u0000\u0001\u0010\u0001\f\u0001\u0018\u0001\t\u0001", null, null]}}, {"name": "activation_58", "class_name": "Activation", "inbound_nodes": [[["lambda_5", 0, 0, {}]]], "config": {"name": "activation_58", "activation": "softmax", "trainable": true}}]}, "backend": "tensorflow"}